<?xml version="1.0" ?>
<net name="human-pose-estimation-0001" version="10">
	<layers>
		<layer id="0" name="data" type="Parameter" version="opset1">
			<data element_type="f32" shape="1,3,256,456"/>
			<output>
				<port id="0" precision="FP32">
					<dim>1</dim>
					<dim>3</dim>
					<dim>256</dim>
					<dim>456</dim>
				</port>
			</output>
		</layer>
		<layer id="1" name="data_mul_89198923/copy_const324_const" type="Const" version="opset1">
			<data element_type="f32" offset="0" shape="1,1,1,1" size="4"/>
			<output>
				<port id="1" precision="FP32">
					<dim>1</dim>
					<dim>1</dim>
					<dim>1</dim>
					<dim>1</dim>
				</port>
			</output>
		</layer>
		<layer id="2" name="Mul_/Fused_Mul_" type="Multiply" version="opset1">
			<input>
				<port id="0">
					<dim>1</dim>
					<dim>3</dim>
					<dim>256</dim>
					<dim>456</dim>
				</port>
				<port id="1">
					<dim>1</dim>
					<dim>1</dim>
					<dim>1</dim>
					<dim>1</dim>
				</port>
			</input>
			<output>
				<port id="2" precision="FP32">
					<dim>1</dim>
					<dim>3</dim>
					<dim>256</dim>
					<dim>456</dim>
				</port>
			</output>
		</layer>
		<layer id="3" name="data_add_89208925/copy_const326_const" type="Const" version="opset1">
			<data element_type="f32" offset="4" shape="1,3,1,1" size="12"/>
			<output>
				<port id="1" precision="FP32">
					<dim>1</dim>
					<dim>3</dim>
					<dim>1</dim>
					<dim>1</dim>
				</port>
			</output>
		</layer>
		<layer id="4" name="Add_/Fused_Add_" type="Add" version="opset1">
			<input>
				<port id="0">
					<dim>1</dim>
					<dim>3</dim>
					<dim>256</dim>
					<dim>456</dim>
				</port>
				<port id="1">
					<dim>1</dim>
					<dim>3</dim>
					<dim>1</dim>
					<dim>1</dim>
				</port>
			</input>
			<output>
				<port id="2" precision="FP32">
					<dim>1</dim>
					<dim>3</dim>
					<dim>256</dim>
					<dim>456</dim>
				</port>
			</output>
		</layer>
		<layer id="5" name="16941698_const" type="Const" version="opset1">
			<data element_type="f32" offset="16" shape="" size="4"/>
			<output>
				<port id="1" precision="FP32"/>
			</output>
		</layer>
		<layer id="6" name="16951699_const" type="Const" version="opset1">
			<data element_type="f32" offset="20" shape="" size="4"/>
			<output>
				<port id="1" precision="FP32"/>
			</output>
		</layer>
		<layer id="7" name="16961700_const" type="Const" version="opset1">
			<data element_type="f32" offset="16" shape="" size="4"/>
			<output>
				<port id="1" precision="FP32"/>
			</output>
		</layer>
		<layer id="8" name="16971701_const" type="Const" version="opset1">
			<data element_type="f32" offset="20" shape="" size="4"/>
			<output>
				<port id="1" precision="FP32"/>
			</output>
		</layer>
		<layer id="9" name="conv1/fq_input_0" type="FakeQuantize" version="opset1">
			<data levels="256"/>
			<input>
				<port id="0">
					<dim>1</dim>
					<dim>3</dim>
					<dim>256</dim>
					<dim>456</dim>
				</port>
				<port id="1"/>
				<port id="2"/>
				<port id="3"/>
				<port id="4"/>
			</input>
			<output>
				<port id="5" precision="FP32">
					<dim>1</dim>
					<dim>3</dim>
					<dim>256</dim>
					<dim>456</dim>
				</port>
			</output>
		</layer>
		<layer id="10" name="Mul1_/Fused_Mul_95789580_const328_const" type="Const" version="opset1">
			<data element_type="f32" offset="24" shape="32,3,3,3" size="3456"/>
			<output>
				<port id="1" precision="FP32">
					<dim>32</dim>
					<dim>3</dim>
					<dim>3</dim>
					<dim>3</dim>
				</port>
			</output>
		</layer>
		<layer id="11" name="17041708_const" type="Const" version="opset1">
			<data element_type="f32" offset="3480" shape="32,1,1,1" size="128"/>
			<output>
				<port id="1" precision="FP32">
					<dim>32</dim>
					<dim>1</dim>
					<dim>1</dim>
					<dim>1</dim>
				</port>
			</output>
		</layer>
		<layer id="12" name="17051709_const" type="Const" version="opset1">
			<data element_type="f32" offset="3608" shape="32,1,1,1" size="128"/>
			<output>
				<port id="1" precision="FP32">
					<dim>32</dim>
					<dim>1</dim>
					<dim>1</dim>
					<dim>1</dim>
				</port>
			</output>
		</layer>
		<layer id="13" name="17061710_const" type="Const" version="opset1">
			<data element_type="f32" offset="3736" shape="32,1,1,1" size="128"/>
			<output>
				<port id="1" precision="FP32">
					<dim>32</dim>
					<dim>1</dim>
					<dim>1</dim>
					<dim>1</dim>
				</port>
			</output>
		</layer>
		<layer id="14" name="17071711_const" type="Const" version="opset1">
			<data element_type="f32" offset="3864" shape="32,1,1,1" size="128"/>
			<output>
				<port id="1" precision="FP32">
					<dim>32</dim>
					<dim>1</dim>
					<dim>1</dim>
					<dim>1</dim>
				</port>
			</output>
		</layer>
		<layer id="15" name="conv1/fq_weights_1" type="FakeQuantize" version="opset1">
			<data levels="255"/>
			<input>
				<port id="0">
					<dim>32</dim>
					<dim>3</dim>
					<dim>3</dim>
					<dim>3</dim>
				</port>
				<port id="1">
					<dim>32</dim>
					<dim>1</dim>
					<dim>1</dim>
					<dim>1</dim>
				</port>
				<port id="2">
					<dim>32</dim>
					<dim>1</dim>
					<dim>1</dim>
					<dim>1</dim>
				</port>
				<port id="3">
					<dim>32</dim>
					<dim>1</dim>
					<dim>1</dim>
					<dim>1</dim>
				</port>
				<port id="4">
					<dim>32</dim>
					<dim>1</dim>
					<dim>1</dim>
					<dim>1</dim>
				</port>
			</input>
			<output>
				<port id="5" precision="FP32">
					<dim>32</dim>
					<dim>3</dim>
					<dim>3</dim>
					<dim>3</dim>
				</port>
			</output>
		</layer>
		<layer id="16" name="conv1" type="Convolution" version="opset1">
			<data dilations="1,1" output_padding="0,0" pads_begin="1,1" pads_end="1,1" strides="2,2"/>
			<input>
				<port id="0">
					<dim>1</dim>
					<dim>3</dim>
					<dim>256</dim>
					<dim>456</dim>
				</port>
				<port id="1">
					<dim>32</dim>
					<dim>3</dim>
					<dim>3</dim>
					<dim>3</dim>
				</port>
			</input>
			<output>
				<port id="2" precision="FP32">
					<dim>1</dim>
					<dim>32</dim>
					<dim>128</dim>
					<dim>228</dim>
				</port>
			</output>
		</layer>
		<layer id="17" name="data_add_89288933/copy_const330_const" type="Const" version="opset1">
			<data element_type="f32" offset="3992" shape="1,32,1,1" size="128"/>
			<output>
				<port id="1" precision="FP32">
					<dim>1</dim>
					<dim>32</dim>
					<dim>1</dim>
					<dim>1</dim>
				</port>
			</output>
		</layer>
		<layer id="18" name="Add1_/Fused_Add_" type="Add" version="opset1">
			<input>
				<port id="0">
					<dim>1</dim>
					<dim>32</dim>
					<dim>128</dim>
					<dim>228</dim>
				</port>
				<port id="1">
					<dim>1</dim>
					<dim>32</dim>
					<dim>1</dim>
					<dim>1</dim>
				</port>
			</input>
			<output>
				<port id="2" precision="FP32">
					<dim>1</dim>
					<dim>32</dim>
					<dim>128</dim>
					<dim>228</dim>
				</port>
			</output>
		</layer>
		<layer id="19" name="relu1" type="ReLU" version="opset1">
			<input>
				<port id="0">
					<dim>1</dim>
					<dim>32</dim>
					<dim>128</dim>
					<dim>228</dim>
				</port>
			</input>
			<output>
				<port id="1" precision="FP32">
					<dim>1</dim>
					<dim>32</dim>
					<dim>128</dim>
					<dim>228</dim>
				</port>
			</output>
		</layer>
		<layer id="20" name="15741578_const" type="Const" version="opset1">
			<data element_type="f32" offset="4120" shape="1,32,1,1" size="128"/>
			<output>
				<port id="1" precision="FP32">
					<dim>1</dim>
					<dim>32</dim>
					<dim>1</dim>
					<dim>1</dim>
				</port>
			</output>
		</layer>
		<layer id="21" name="15751579_const" type="Const" version="opset1">
			<data element_type="f32" offset="4248" shape="1,32,1,1" size="128"/>
			<output>
				<port id="1" precision="FP32">
					<dim>1</dim>
					<dim>32</dim>
					<dim>1</dim>
					<dim>1</dim>
				</port>
			</output>
		</layer>
		<layer id="22" name="15761580_const" type="Const" version="opset1">
			<data element_type="f32" offset="4120" shape="1,32,1,1" size="128"/>
			<output>
				<port id="1" precision="FP32">
					<dim>1</dim>
					<dim>32</dim>
					<dim>1</dim>
					<dim>1</dim>
				</port>
			</output>
		</layer>
		<layer id="23" name="15771581_const" type="Const" version="opset1">
			<data element_type="f32" offset="4248" shape="1,32,1,1" size="128"/>
			<output>
				<port id="1" precision="FP32">
					<dim>1</dim>
					<dim>32</dim>
					<dim>1</dim>
					<dim>1</dim>
				</port>
			</output>
		</layer>
		<layer id="24" name="conv2_1/dw/fq_input_0" type="FakeQuantize" version="opset1">
			<data levels="256"/>
			<input>
				<port id="0">
					<dim>1</dim>
					<dim>32</dim>
					<dim>128</dim>
					<dim>228</dim>
				</port>
				<port id="1">
					<dim>1</dim>
					<dim>32</dim>
					<dim>1</dim>
					<dim>1</dim>
				</port>
				<port id="2">
					<dim>1</dim>
					<dim>32</dim>
					<dim>1</dim>
					<dim>1</dim>
				</port>
				<port id="3">
					<dim>1</dim>
					<dim>32</dim>
					<dim>1</dim>
					<dim>1</dim>
				</port>
				<port id="4">
					<dim>1</dim>
					<dim>32</dim>
					<dim>1</dim>
					<dim>1</dim>
				</port>
			</input>
			<output>
				<port id="5" precision="FP32">
					<dim>1</dim>
					<dim>32</dim>
					<dim>128</dim>
					<dim>228</dim>
				</port>
			</output>
		</layer>
		<layer id="25" name="702615_const" type="Const" version="opset1">
			<data element_type="f32" offset="4376" shape="32,1,3,3" size="1152"/>
			<output>
				<port id="1" precision="FP32">
					<dim>32</dim>
					<dim>1</dim>
					<dim>3</dim>
					<dim>3</dim>
				</port>
			</output>
		</layer>
		<layer id="26" name="15841588_const" type="Const" version="opset1">
			<data element_type="f32" offset="5528" shape="32,1,1,1" size="128"/>
			<output>
				<port id="1" precision="FP32">
					<dim>32</dim>
					<dim>1</dim>
					<dim>1</dim>
					<dim>1</dim>
				</port>
			</output>
		</layer>
		<layer id="27" name="15851589_const" type="Const" version="opset1">
			<data element_type="f32" offset="5656" shape="32,1,1,1" size="128"/>
			<output>
				<port id="1" precision="FP32">
					<dim>32</dim>
					<dim>1</dim>
					<dim>1</dim>
					<dim>1</dim>
				</port>
			</output>
		</layer>
		<layer id="28" name="15861590_const" type="Const" version="opset1">
			<data element_type="f32" offset="5528" shape="32,1,1,1" size="128"/>
			<output>
				<port id="1" precision="FP32">
					<dim>32</dim>
					<dim>1</dim>
					<dim>1</dim>
					<dim>1</dim>
				</port>
			</output>
		</layer>
		<layer id="29" name="15871591_const" type="Const" version="opset1">
			<data element_type="f32" offset="5656" shape="32,1,1,1" size="128"/>
			<output>
				<port id="1" precision="FP32">
					<dim>32</dim>
					<dim>1</dim>
					<dim>1</dim>
					<dim>1</dim>
				</port>
			</output>
		</layer>
		<layer id="30" name="conv2_1/dw/fq_weights_1" type="FakeQuantize" version="opset1">
			<data levels="255"/>
			<input>
				<port id="0">
					<dim>32</dim>
					<dim>1</dim>
					<dim>3</dim>
					<dim>3</dim>
				</port>
				<port id="1">
					<dim>32</dim>
					<dim>1</dim>
					<dim>1</dim>
					<dim>1</dim>
				</port>
				<port id="2">
					<dim>32</dim>
					<dim>1</dim>
					<dim>1</dim>
					<dim>1</dim>
				</port>
				<port id="3">
					<dim>32</dim>
					<dim>1</dim>
					<dim>1</dim>
					<dim>1</dim>
				</port>
				<port id="4">
					<dim>32</dim>
					<dim>1</dim>
					<dim>1</dim>
					<dim>1</dim>
				</port>
			</input>
			<output>
				<port id="5" precision="FP32">
					<dim>32</dim>
					<dim>1</dim>
					<dim>3</dim>
					<dim>3</dim>
				</port>
			</output>
		</layer>
		<layer id="31" name="4064/value4066_const" type="Const" version="opset1">
			<data element_type="i64" offset="5784" shape="5" size="40"/>
			<output>
				<port id="1" precision="I64">
					<dim>5</dim>
				</port>
			</output>
		</layer>
		<layer id="32" name="4064" type="Reshape" version="opset1">
			<data special_zero="True"/>
			<input>
				<port id="0">
					<dim>32</dim>
					<dim>1</dim>
					<dim>3</dim>
					<dim>3</dim>
				</port>
				<port id="1">
					<dim>5</dim>
				</port>
			</input>
			<output>
				<port id="2" precision="FP32">
					<dim>32</dim>
					<dim>1</dim>
					<dim>1</dim>
					<dim>3</dim>
					<dim>3</dim>
				</port>
			</output>
		</layer>
		<layer id="33" name="conv2_1/dw" type="GroupConvolution" version="opset1">
			<data dilations="1,1" output_padding="0,0" pads_begin="1,1" pads_end="1,1" strides="1,1"/>
			<input>
				<port id="0">
					<dim>1</dim>
					<dim>32</dim>
					<dim>128</dim>
					<dim>228</dim>
				</port>
				<port id="1">
					<dim>32</dim>
					<dim>1</dim>
					<dim>1</dim>
					<dim>3</dim>
					<dim>3</dim>
				</port>
			</input>
			<output>
				<port id="2" precision="FP32">
					<dim>1</dim>
					<dim>32</dim>
					<dim>128</dim>
					<dim>228</dim>
				</port>
			</output>
		</layer>
		<layer id="34" name="data_add_89368941/copy_const335_const" type="Const" version="opset1">
			<data element_type="f32" offset="5824" shape="1,32,1,1" size="128"/>
			<output>
				<port id="1" precision="FP32">
					<dim>1</dim>
					<dim>32</dim>
					<dim>1</dim>
					<dim>1</dim>
				</port>
			</output>
		</layer>
		<layer id="35" name="Add1_7824/Fused_Add_" type="Add" version="opset1">
			<input>
				<port id="0">
					<dim>1</dim>
					<dim>32</dim>
					<dim>128</dim>
					<dim>228</dim>
				</port>
				<port id="1">
					<dim>1</dim>
					<dim>32</dim>
					<dim>1</dim>
					<dim>1</dim>
				</port>
			</input>
			<output>
				<port id="2" precision="FP32">
					<dim>1</dim>
					<dim>32</dim>
					<dim>128</dim>
					<dim>228</dim>
				</port>
			</output>
		</layer>
		<layer id="36" name="relu2_1/dw" type="ReLU" version="opset1">
			<input>
				<port id="0">
					<dim>1</dim>
					<dim>32</dim>
					<dim>128</dim>
					<dim>228</dim>
				</port>
			</input>
			<output>
				<port id="1" precision="FP32">
					<dim>1</dim>
					<dim>32</dim>
					<dim>128</dim>
					<dim>228</dim>
				</port>
			</output>
		</layer>
		<layer id="37" name="14541458_const" type="Const" version="opset1">
			<data element_type="f32" offset="5952" shape="" size="4"/>
			<output>
				<port id="1" precision="FP32"/>
			</output>
		</layer>
		<layer id="38" name="14551459_const" type="Const" version="opset1">
			<data element_type="f32" offset="5956" shape="" size="4"/>
			<output>
				<port id="1" precision="FP32"/>
			</output>
		</layer>
		<layer id="39" name="14561460_const" type="Const" version="opset1">
			<data element_type="f32" offset="5952" shape="" size="4"/>
			<output>
				<port id="1" precision="FP32"/>
			</output>
		</layer>
		<layer id="40" name="14571461_const" type="Const" version="opset1">
			<data element_type="f32" offset="5956" shape="" size="4"/>
			<output>
				<port id="1" precision="FP32"/>
			</output>
		</layer>
		<layer id="41" name="conv2_1/sep/fq_input_0" type="FakeQuantize" version="opset1">
			<data levels="256"/>
			<input>
				<port id="0">
					<dim>1</dim>
					<dim>32</dim>
					<dim>128</dim>
					<dim>228</dim>
				</port>
				<port id="1"/>
				<port id="2"/>
				<port id="3"/>
				<port id="4"/>
			</input>
			<output>
				<port id="5" precision="FP32">
					<dim>1</dim>
					<dim>32</dim>
					<dim>128</dim>
					<dim>228</dim>
				</port>
			</output>
		</layer>
		<layer id="42" name="Mul1_7835/Fused_Mul_95869588_const338_const" type="Const" version="opset1">
			<data element_type="f32" offset="5960" shape="64,32,1,1" size="8192"/>
			<output>
				<port id="1" precision="FP32">
					<dim>64</dim>
					<dim>32</dim>
					<dim>1</dim>
					<dim>1</dim>
				</port>
			</output>
		</layer>
		<layer id="43" name="14641468_const" type="Const" version="opset1">
			<data element_type="f32" offset="14152" shape="64,1,1,1" size="256"/>
			<output>
				<port id="1" precision="FP32">
					<dim>64</dim>
					<dim>1</dim>
					<dim>1</dim>
					<dim>1</dim>
				</port>
			</output>
		</layer>
		<layer id="44" name="14651469_const" type="Const" version="opset1">
			<data element_type="f32" offset="14408" shape="64,1,1,1" size="256"/>
			<output>
				<port id="1" precision="FP32">
					<dim>64</dim>
					<dim>1</dim>
					<dim>1</dim>
					<dim>1</dim>
				</port>
			</output>
		</layer>
		<layer id="45" name="14661470_const" type="Const" version="opset1">
			<data element_type="f32" offset="14152" shape="64,1,1,1" size="256"/>
			<output>
				<port id="1" precision="FP32">
					<dim>64</dim>
					<dim>1</dim>
					<dim>1</dim>
					<dim>1</dim>
				</port>
			</output>
		</layer>
		<layer id="46" name="14671471_const" type="Const" version="opset1">
			<data element_type="f32" offset="14408" shape="64,1,1,1" size="256"/>
			<output>
				<port id="1" precision="FP32">
					<dim>64</dim>
					<dim>1</dim>
					<dim>1</dim>
					<dim>1</dim>
				</port>
			</output>
		</layer>
		<layer id="47" name="conv2_1/sep/fq_weights_1" type="FakeQuantize" version="opset1">
			<data levels="255"/>
			<input>
				<port id="0">
					<dim>64</dim>
					<dim>32</dim>
					<dim>1</dim>
					<dim>1</dim>
				</port>
				<port id="1">
					<dim>64</dim>
					<dim>1</dim>
					<dim>1</dim>
					<dim>1</dim>
				</port>
				<port id="2">
					<dim>64</dim>
					<dim>1</dim>
					<dim>1</dim>
					<dim>1</dim>
				</port>
				<port id="3">
					<dim>64</dim>
					<dim>1</dim>
					<dim>1</dim>
					<dim>1</dim>
				</port>
				<port id="4">
					<dim>64</dim>
					<dim>1</dim>
					<dim>1</dim>
					<dim>1</dim>
				</port>
			</input>
			<output>
				<port id="5" precision="FP32">
					<dim>64</dim>
					<dim>32</dim>
					<dim>1</dim>
					<dim>1</dim>
				</port>
			</output>
		</layer>
		<layer id="48" name="conv2_1/sep" type="Convolution" version="opset1">
			<data dilations="1,1" output_padding="0,0" pads_begin="0,0" pads_end="0,0" strides="1,1"/>
			<input>
				<port id="0">
					<dim>1</dim>
					<dim>32</dim>
					<dim>128</dim>
					<dim>228</dim>
				</port>
				<port id="1">
					<dim>64</dim>
					<dim>32</dim>
					<dim>1</dim>
					<dim>1</dim>
				</port>
			</input>
			<output>
				<port id="2" precision="FP32">
					<dim>1</dim>
					<dim>64</dim>
					<dim>128</dim>
					<dim>228</dim>
				</port>
			</output>
		</layer>
		<layer id="49" name="data_add_89448949/copy_const340_const" type="Const" version="opset1">
			<data element_type="f32" offset="14664" shape="1,64,1,1" size="256"/>
			<output>
				<port id="1" precision="FP32">
					<dim>1</dim>
					<dim>64</dim>
					<dim>1</dim>
					<dim>1</dim>
				</port>
			</output>
		</layer>
		<layer id="50" name="Add1_7836/Fused_Add_" type="Add" version="opset1">
			<input>
				<port id="0">
					<dim>1</dim>
					<dim>64</dim>
					<dim>128</dim>
					<dim>228</dim>
				</port>
				<port id="1">
					<dim>1</dim>
					<dim>64</dim>
					<dim>1</dim>
					<dim>1</dim>
				</port>
			</input>
			<output>
				<port id="2" precision="FP32">
					<dim>1</dim>
					<dim>64</dim>
					<dim>128</dim>
					<dim>228</dim>
				</port>
			</output>
		</layer>
		<layer id="51" name="relu2_1/sep" type="ReLU" version="opset1">
			<input>
				<port id="0">
					<dim>1</dim>
					<dim>64</dim>
					<dim>128</dim>
					<dim>228</dim>
				</port>
			</input>
			<output>
				<port id="1" precision="FP32">
					<dim>1</dim>
					<dim>64</dim>
					<dim>128</dim>
					<dim>228</dim>
				</port>
			</output>
		</layer>
		<layer id="52" name="11741178_const" type="Const" version="opset1">
			<data element_type="f32" offset="14920" shape="1,64,1,1" size="256"/>
			<output>
				<port id="1" precision="FP32">
					<dim>1</dim>
					<dim>64</dim>
					<dim>1</dim>
					<dim>1</dim>
				</port>
			</output>
		</layer>
		<layer id="53" name="11751179_const" type="Const" version="opset1">
			<data element_type="f32" offset="15176" shape="1,64,1,1" size="256"/>
			<output>
				<port id="1" precision="FP32">
					<dim>1</dim>
					<dim>64</dim>
					<dim>1</dim>
					<dim>1</dim>
				</port>
			</output>
		</layer>
		<layer id="54" name="11761180_const" type="Const" version="opset1">
			<data element_type="f32" offset="14920" shape="1,64,1,1" size="256"/>
			<output>
				<port id="1" precision="FP32">
					<dim>1</dim>
					<dim>64</dim>
					<dim>1</dim>
					<dim>1</dim>
				</port>
			</output>
		</layer>
		<layer id="55" name="11771181_const" type="Const" version="opset1">
			<data element_type="f32" offset="15176" shape="1,64,1,1" size="256"/>
			<output>
				<port id="1" precision="FP32">
					<dim>1</dim>
					<dim>64</dim>
					<dim>1</dim>
					<dim>1</dim>
				</port>
			</output>
		</layer>
		<layer id="56" name="conv2_2/dw/fq_input_0" type="FakeQuantize" version="opset1">
			<data levels="256"/>
			<input>
				<port id="0">
					<dim>1</dim>
					<dim>64</dim>
					<dim>128</dim>
					<dim>228</dim>
				</port>
				<port id="1">
					<dim>1</dim>
					<dim>64</dim>
					<dim>1</dim>
					<dim>1</dim>
				</port>
				<port id="2">
					<dim>1</dim>
					<dim>64</dim>
					<dim>1</dim>
					<dim>1</dim>
				</port>
				<port id="3">
					<dim>1</dim>
					<dim>64</dim>
					<dim>1</dim>
					<dim>1</dim>
				</port>
				<port id="4">
					<dim>1</dim>
					<dim>64</dim>
					<dim>1</dim>
					<dim>1</dim>
				</port>
			</input>
			<output>
				<port id="5" precision="FP32">
					<dim>1</dim>
					<dim>64</dim>
					<dim>128</dim>
					<dim>228</dim>
				</port>
			</output>
		</layer>
		<layer id="57" name="706617_const" type="Const" version="opset1">
			<data element_type="f32" offset="15432" shape="64,1,3,3" size="2304"/>
			<output>
				<port id="1" precision="FP32">
					<dim>64</dim>
					<dim>1</dim>
					<dim>3</dim>
					<dim>3</dim>
				</port>
			</output>
		</layer>
		<layer id="58" name="11841188_const" type="Const" version="opset1">
			<data element_type="f32" offset="17736" shape="64,1,1,1" size="256"/>
			<output>
				<port id="1" precision="FP32">
					<dim>64</dim>
					<dim>1</dim>
					<dim>1</dim>
					<dim>1</dim>
				</port>
			</output>
		</layer>
		<layer id="59" name="11851189_const" type="Const" version="opset1">
			<data element_type="f32" offset="17992" shape="64,1,1,1" size="256"/>
			<output>
				<port id="1" precision="FP32">
					<dim>64</dim>
					<dim>1</dim>
					<dim>1</dim>
					<dim>1</dim>
				</port>
			</output>
		</layer>
		<layer id="60" name="11861190_const" type="Const" version="opset1">
			<data element_type="f32" offset="17736" shape="64,1,1,1" size="256"/>
			<output>
				<port id="1" precision="FP32">
					<dim>64</dim>
					<dim>1</dim>
					<dim>1</dim>
					<dim>1</dim>
				</port>
			</output>
		</layer>
		<layer id="61" name="11871191_const" type="Const" version="opset1">
			<data element_type="f32" offset="17992" shape="64,1,1,1" size="256"/>
			<output>
				<port id="1" precision="FP32">
					<dim>64</dim>
					<dim>1</dim>
					<dim>1</dim>
					<dim>1</dim>
				</port>
			</output>
		</layer>
		<layer id="62" name="conv2_2/dw/fq_weights_1" type="FakeQuantize" version="opset1">
			<data levels="255"/>
			<input>
				<port id="0">
					<dim>64</dim>
					<dim>1</dim>
					<dim>3</dim>
					<dim>3</dim>
				</port>
				<port id="1">
					<dim>64</dim>
					<dim>1</dim>
					<dim>1</dim>
					<dim>1</dim>
				</port>
				<port id="2">
					<dim>64</dim>
					<dim>1</dim>
					<dim>1</dim>
					<dim>1</dim>
				</port>
				<port id="3">
					<dim>64</dim>
					<dim>1</dim>
					<dim>1</dim>
					<dim>1</dim>
				</port>
				<port id="4">
					<dim>64</dim>
					<dim>1</dim>
					<dim>1</dim>
					<dim>1</dim>
				</port>
			</input>
			<output>
				<port id="5" precision="FP32">
					<dim>64</dim>
					<dim>1</dim>
					<dim>3</dim>
					<dim>3</dim>
				</port>
			</output>
		</layer>
		<layer id="63" name="4092/value4094_const" type="Const" version="opset1">
			<data element_type="i64" offset="18248" shape="5" size="40"/>
			<output>
				<port id="1" precision="I64">
					<dim>5</dim>
				</port>
			</output>
		</layer>
		<layer id="64" name="4092" type="Reshape" version="opset1">
			<data special_zero="True"/>
			<input>
				<port id="0">
					<dim>64</dim>
					<dim>1</dim>
					<dim>3</dim>
					<dim>3</dim>
				</port>
				<port id="1">
					<dim>5</dim>
				</port>
			</input>
			<output>
				<port id="2" precision="FP32">
					<dim>64</dim>
					<dim>1</dim>
					<dim>1</dim>
					<dim>3</dim>
					<dim>3</dim>
				</port>
			</output>
		</layer>
		<layer id="65" name="conv2_2/dw" type="GroupConvolution" version="opset1">
			<data dilations="1,1" output_padding="0,0" pads_begin="1,1" pads_end="1,1" strides="2,2"/>
			<input>
				<port id="0">
					<dim>1</dim>
					<dim>64</dim>
					<dim>128</dim>
					<dim>228</dim>
				</port>
				<port id="1">
					<dim>64</dim>
					<dim>1</dim>
					<dim>1</dim>
					<dim>3</dim>
					<dim>3</dim>
				</port>
			</input>
			<output>
				<port id="2" precision="FP32">
					<dim>1</dim>
					<dim>64</dim>
					<dim>64</dim>
					<dim>114</dim>
				</port>
			</output>
		</layer>
		<layer id="66" name="data_add_89528957/copy_const345_const" type="Const" version="opset1">
			<data element_type="f32" offset="18288" shape="1,64,1,1" size="256"/>
			<output>
				<port id="1" precision="FP32">
					<dim>1</dim>
					<dim>64</dim>
					<dim>1</dim>
					<dim>1</dim>
				</port>
			</output>
		</layer>
		<layer id="67" name="Add1_7848/Fused_Add_" type="Add" version="opset1">
			<input>
				<port id="0">
					<dim>1</dim>
					<dim>64</dim>
					<dim>64</dim>
					<dim>114</dim>
				</port>
				<port id="1">
					<dim>1</dim>
					<dim>64</dim>
					<dim>1</dim>
					<dim>1</dim>
				</port>
			</input>
			<output>
				<port id="2" precision="FP32">
					<dim>1</dim>
					<dim>64</dim>
					<dim>64</dim>
					<dim>114</dim>
				</port>
			</output>
		</layer>
		<layer id="68" name="relu2_2/dw" type="ReLU" version="opset1">
			<input>
				<port id="0">
					<dim>1</dim>
					<dim>64</dim>
					<dim>64</dim>
					<dim>114</dim>
				</port>
			</input>
			<output>
				<port id="1" precision="FP32">
					<dim>1</dim>
					<dim>64</dim>
					<dim>64</dim>
					<dim>114</dim>
				</port>
			</output>
		</layer>
		<layer id="69" name="11141118_const" type="Const" version="opset1">
			<data element_type="f32" offset="5952" shape="" size="4"/>
			<output>
				<port id="1" precision="FP32"/>
			</output>
		</layer>
		<layer id="70" name="11151119_const" type="Const" version="opset1">
			<data element_type="f32" offset="18544" shape="" size="4"/>
			<output>
				<port id="1" precision="FP32"/>
			</output>
		</layer>
		<layer id="71" name="11161120_const" type="Const" version="opset1">
			<data element_type="f32" offset="5952" shape="" size="4"/>
			<output>
				<port id="1" precision="FP32"/>
			</output>
		</layer>
		<layer id="72" name="11171121_const" type="Const" version="opset1">
			<data element_type="f32" offset="18544" shape="" size="4"/>
			<output>
				<port id="1" precision="FP32"/>
			</output>
		</layer>
		<layer id="73" name="conv2_2/sep/fq_input_0" type="FakeQuantize" version="opset1">
			<data levels="256"/>
			<input>
				<port id="0">
					<dim>1</dim>
					<dim>64</dim>
					<dim>64</dim>
					<dim>114</dim>
				</port>
				<port id="1"/>
				<port id="2"/>
				<port id="3"/>
				<port id="4"/>
			</input>
			<output>
				<port id="5" precision="FP32">
					<dim>1</dim>
					<dim>64</dim>
					<dim>64</dim>
					<dim>114</dim>
				</port>
			</output>
		</layer>
		<layer id="74" name="Mul1_7859/Fused_Mul_95949596_const348_const" type="Const" version="opset1">
			<data element_type="f32" offset="18548" shape="128,64,1,1" size="32768"/>
			<output>
				<port id="1" precision="FP32">
					<dim>128</dim>
					<dim>64</dim>
					<dim>1</dim>
					<dim>1</dim>
				</port>
			</output>
		</layer>
		<layer id="75" name="11241128_const" type="Const" version="opset1">
			<data element_type="f32" offset="51316" shape="128,1,1,1" size="512"/>
			<output>
				<port id="1" precision="FP32">
					<dim>128</dim>
					<dim>1</dim>
					<dim>1</dim>
					<dim>1</dim>
				</port>
			</output>
		</layer>
		<layer id="76" name="11251129_const" type="Const" version="opset1">
			<data element_type="f32" offset="51828" shape="128,1,1,1" size="512"/>
			<output>
				<port id="1" precision="FP32">
					<dim>128</dim>
					<dim>1</dim>
					<dim>1</dim>
					<dim>1</dim>
				</port>
			</output>
		</layer>
		<layer id="77" name="11261130_const" type="Const" version="opset1">
			<data element_type="f32" offset="51316" shape="128,1,1,1" size="512"/>
			<output>
				<port id="1" precision="FP32">
					<dim>128</dim>
					<dim>1</dim>
					<dim>1</dim>
					<dim>1</dim>
				</port>
			</output>
		</layer>
		<layer id="78" name="11271131_const" type="Const" version="opset1">
			<data element_type="f32" offset="51828" shape="128,1,1,1" size="512"/>
			<output>
				<port id="1" precision="FP32">
					<dim>128</dim>
					<dim>1</dim>
					<dim>1</dim>
					<dim>1</dim>
				</port>
			</output>
		</layer>
		<layer id="79" name="conv2_2/sep/fq_weights_1" type="FakeQuantize" version="opset1">
			<data levels="255"/>
			<input>
				<port id="0">
					<dim>128</dim>
					<dim>64</dim>
					<dim>1</dim>
					<dim>1</dim>
				</port>
				<port id="1">
					<dim>128</dim>
					<dim>1</dim>
					<dim>1</dim>
					<dim>1</dim>
				</port>
				<port id="2">
					<dim>128</dim>
					<dim>1</dim>
					<dim>1</dim>
					<dim>1</dim>
				</port>
				<port id="3">
					<dim>128</dim>
					<dim>1</dim>
					<dim>1</dim>
					<dim>1</dim>
				</port>
				<port id="4">
					<dim>128</dim>
					<dim>1</dim>
					<dim>1</dim>
					<dim>1</dim>
				</port>
			</input>
			<output>
				<port id="5" precision="FP32">
					<dim>128</dim>
					<dim>64</dim>
					<dim>1</dim>
					<dim>1</dim>
				</port>
			</output>
		</layer>
		<layer id="80" name="conv2_2/sep" type="Convolution" version="opset1">
			<data dilations="1,1" output_padding="0,0" pads_begin="0,0" pads_end="0,0" strides="1,1"/>
			<input>
				<port id="0">
					<dim>1</dim>
					<dim>64</dim>
					<dim>64</dim>
					<dim>114</dim>
				</port>
				<port id="1">
					<dim>128</dim>
					<dim>64</dim>
					<dim>1</dim>
					<dim>1</dim>
				</port>
			</input>
			<output>
				<port id="2" precision="FP32">
					<dim>1</dim>
					<dim>128</dim>
					<dim>64</dim>
					<dim>114</dim>
				</port>
			</output>
		</layer>
		<layer id="81" name="data_add_89608965/copy_const350_const" type="Const" version="opset1">
			<data element_type="f32" offset="52340" shape="1,128,1,1" size="512"/>
			<output>
				<port id="1" precision="FP32">
					<dim>1</dim>
					<dim>128</dim>
					<dim>1</dim>
					<dim>1</dim>
				</port>
			</output>
		</layer>
		<layer id="82" name="Add1_7860/Fused_Add_" type="Add" version="opset1">
			<input>
				<port id="0">
					<dim>1</dim>
					<dim>128</dim>
					<dim>64</dim>
					<dim>114</dim>
				</port>
				<port id="1">
					<dim>1</dim>
					<dim>128</dim>
					<dim>1</dim>
					<dim>1</dim>
				</port>
			</input>
			<output>
				<port id="2" precision="FP32">
					<dim>1</dim>
					<dim>128</dim>
					<dim>64</dim>
					<dim>114</dim>
				</port>
			</output>
		</layer>
		<layer id="83" name="relu2_2/sep" type="ReLU" version="opset1">
			<input>
				<port id="0">
					<dim>1</dim>
					<dim>128</dim>
					<dim>64</dim>
					<dim>114</dim>
				</port>
			</input>
			<output>
				<port id="1" precision="FP32">
					<dim>1</dim>
					<dim>128</dim>
					<dim>64</dim>
					<dim>114</dim>
				</port>
			</output>
		</layer>
		<layer id="84" name="21142118_const" type="Const" version="opset1">
			<data element_type="f32" offset="52852" shape="1,128,1,1" size="512"/>
			<output>
				<port id="1" precision="FP32">
					<dim>1</dim>
					<dim>128</dim>
					<dim>1</dim>
					<dim>1</dim>
				</port>
			</output>
		</layer>
		<layer id="85" name="21152119_const" type="Const" version="opset1">
			<data element_type="f32" offset="53364" shape="1,128,1,1" size="512"/>
			<output>
				<port id="1" precision="FP32">
					<dim>1</dim>
					<dim>128</dim>
					<dim>1</dim>
					<dim>1</dim>
				</port>
			</output>
		</layer>
		<layer id="86" name="21162120_const" type="Const" version="opset1">
			<data element_type="f32" offset="52852" shape="1,128,1,1" size="512"/>
			<output>
				<port id="1" precision="FP32">
					<dim>1</dim>
					<dim>128</dim>
					<dim>1</dim>
					<dim>1</dim>
				</port>
			</output>
		</layer>
		<layer id="87" name="21172121_const" type="Const" version="opset1">
			<data element_type="f32" offset="53364" shape="1,128,1,1" size="512"/>
			<output>
				<port id="1" precision="FP32">
					<dim>1</dim>
					<dim>128</dim>
					<dim>1</dim>
					<dim>1</dim>
				</port>
			</output>
		</layer>
		<layer id="88" name="conv3_1/dw/fq_input_0" type="FakeQuantize" version="opset1">
			<data levels="256"/>
			<input>
				<port id="0">
					<dim>1</dim>
					<dim>128</dim>
					<dim>64</dim>
					<dim>114</dim>
				</port>
				<port id="1">
					<dim>1</dim>
					<dim>128</dim>
					<dim>1</dim>
					<dim>1</dim>
				</port>
				<port id="2">
					<dim>1</dim>
					<dim>128</dim>
					<dim>1</dim>
					<dim>1</dim>
				</port>
				<port id="3">
					<dim>1</dim>
					<dim>128</dim>
					<dim>1</dim>
					<dim>1</dim>
				</port>
				<port id="4">
					<dim>1</dim>
					<dim>128</dim>
					<dim>1</dim>
					<dim>1</dim>
				</port>
			</input>
			<output>
				<port id="5" precision="FP32">
					<dim>1</dim>
					<dim>128</dim>
					<dim>64</dim>
					<dim>114</dim>
				</port>
			</output>
		</layer>
		<layer id="89" name="710619_const" type="Const" version="opset1">
			<data element_type="f32" offset="53876" shape="128,1,3,3" size="4608"/>
			<output>
				<port id="1" precision="FP32">
					<dim>128</dim>
					<dim>1</dim>
					<dim>3</dim>
					<dim>3</dim>
				</port>
			</output>
		</layer>
		<layer id="90" name="21242128_const" type="Const" version="opset1">
			<data element_type="f32" offset="58484" shape="128,1,1,1" size="512"/>
			<output>
				<port id="1" precision="FP32">
					<dim>128</dim>
					<dim>1</dim>
					<dim>1</dim>
					<dim>1</dim>
				</port>
			</output>
		</layer>
		<layer id="91" name="21252129_const" type="Const" version="opset1">
			<data element_type="f32" offset="58996" shape="128,1,1,1" size="512"/>
			<output>
				<port id="1" precision="FP32">
					<dim>128</dim>
					<dim>1</dim>
					<dim>1</dim>
					<dim>1</dim>
				</port>
			</output>
		</layer>
		<layer id="92" name="21262130_const" type="Const" version="opset1">
			<data element_type="f32" offset="58484" shape="128,1,1,1" size="512"/>
			<output>
				<port id="1" precision="FP32">
					<dim>128</dim>
					<dim>1</dim>
					<dim>1</dim>
					<dim>1</dim>
				</port>
			</output>
		</layer>
		<layer id="93" name="21272131_const" type="Const" version="opset1">
			<data element_type="f32" offset="58996" shape="128,1,1,1" size="512"/>
			<output>
				<port id="1" precision="FP32">
					<dim>128</dim>
					<dim>1</dim>
					<dim>1</dim>
					<dim>1</dim>
				</port>
			</output>
		</layer>
		<layer id="94" name="conv3_1/dw/fq_weights_1" type="FakeQuantize" version="opset1">
			<data levels="255"/>
			<input>
				<port id="0">
					<dim>128</dim>
					<dim>1</dim>
					<dim>3</dim>
					<dim>3</dim>
				</port>
				<port id="1">
					<dim>128</dim>
					<dim>1</dim>
					<dim>1</dim>
					<dim>1</dim>
				</port>
				<port id="2">
					<dim>128</dim>
					<dim>1</dim>
					<dim>1</dim>
					<dim>1</dim>
				</port>
				<port id="3">
					<dim>128</dim>
					<dim>1</dim>
					<dim>1</dim>
					<dim>1</dim>
				</port>
				<port id="4">
					<dim>128</dim>
					<dim>1</dim>
					<dim>1</dim>
					<dim>1</dim>
				</port>
			</input>
			<output>
				<port id="5" precision="FP32">
					<dim>128</dim>
					<dim>1</dim>
					<dim>3</dim>
					<dim>3</dim>
				</port>
			</output>
		</layer>
		<layer id="95" name="4068/value4070_const" type="Const" version="opset1">
			<data element_type="i64" offset="59508" shape="5" size="40"/>
			<output>
				<port id="1" precision="I64">
					<dim>5</dim>
				</port>
			</output>
		</layer>
		<layer id="96" name="4068" type="Reshape" version="opset1">
			<data special_zero="True"/>
			<input>
				<port id="0">
					<dim>128</dim>
					<dim>1</dim>
					<dim>3</dim>
					<dim>3</dim>
				</port>
				<port id="1">
					<dim>5</dim>
				</port>
			</input>
			<output>
				<port id="2" precision="FP32">
					<dim>128</dim>
					<dim>1</dim>
					<dim>1</dim>
					<dim>3</dim>
					<dim>3</dim>
				</port>
			</output>
		</layer>
		<layer id="97" name="conv3_1/dw" type="GroupConvolution" version="opset1">
			<data dilations="1,1" output_padding="0,0" pads_begin="1,1" pads_end="1,1" strides="1,1"/>
			<input>
				<port id="0">
					<dim>1</dim>
					<dim>128</dim>
					<dim>64</dim>
					<dim>114</dim>
				</port>
				<port id="1">
					<dim>128</dim>
					<dim>1</dim>
					<dim>1</dim>
					<dim>3</dim>
					<dim>3</dim>
				</port>
			</input>
			<output>
				<port id="2" precision="FP32">
					<dim>1</dim>
					<dim>128</dim>
					<dim>64</dim>
					<dim>114</dim>
				</port>
			</output>
		</layer>
		<layer id="98" name="data_add_89688973/copy_const355_const" type="Const" version="opset1">
			<data element_type="f32" offset="59548" shape="1,128,1,1" size="512"/>
			<output>
				<port id="1" precision="FP32">
					<dim>1</dim>
					<dim>128</dim>
					<dim>1</dim>
					<dim>1</dim>
				</port>
			</output>
		</layer>
		<layer id="99" name="Add1_7872/Fused_Add_" type="Add" version="opset1">
			<input>
				<port id="0">
					<dim>1</dim>
					<dim>128</dim>
					<dim>64</dim>
					<dim>114</dim>
				</port>
				<port id="1">
					<dim>1</dim>
					<dim>128</dim>
					<dim>1</dim>
					<dim>1</dim>
				</port>
			</input>
			<output>
				<port id="2" precision="FP32">
					<dim>1</dim>
					<dim>128</dim>
					<dim>64</dim>
					<dim>114</dim>
				</port>
			</output>
		</layer>
		<layer id="100" name="relu3_1/dw" type="ReLU" version="opset1">
			<input>
				<port id="0">
					<dim>1</dim>
					<dim>128</dim>
					<dim>64</dim>
					<dim>114</dim>
				</port>
			</input>
			<output>
				<port id="1" precision="FP32">
					<dim>1</dim>
					<dim>128</dim>
					<dim>64</dim>
					<dim>114</dim>
				</port>
			</output>
		</layer>
		<layer id="101" name="20542058_const" type="Const" version="opset1">
			<data element_type="f32" offset="5952" shape="" size="4"/>
			<output>
				<port id="1" precision="FP32"/>
			</output>
		</layer>
		<layer id="102" name="20552059_const" type="Const" version="opset1">
			<data element_type="f32" offset="60060" shape="" size="4"/>
			<output>
				<port id="1" precision="FP32"/>
			</output>
		</layer>
		<layer id="103" name="20562060_const" type="Const" version="opset1">
			<data element_type="f32" offset="5952" shape="" size="4"/>
			<output>
				<port id="1" precision="FP32"/>
			</output>
		</layer>
		<layer id="104" name="20572061_const" type="Const" version="opset1">
			<data element_type="f32" offset="60060" shape="" size="4"/>
			<output>
				<port id="1" precision="FP32"/>
			</output>
		</layer>
		<layer id="105" name="conv3_1/sep/fq_input_0" type="FakeQuantize" version="opset1">
			<data levels="256"/>
			<input>
				<port id="0">
					<dim>1</dim>
					<dim>128</dim>
					<dim>64</dim>
					<dim>114</dim>
				</port>
				<port id="1"/>
				<port id="2"/>
				<port id="3"/>
				<port id="4"/>
			</input>
			<output>
				<port id="5" precision="FP32">
					<dim>1</dim>
					<dim>128</dim>
					<dim>64</dim>
					<dim>114</dim>
				</port>
			</output>
		</layer>
		<layer id="106" name="Mul1_7883/Fused_Mul_96029604_const358_const" type="Const" version="opset1">
			<data element_type="f32" offset="60064" shape="128,128,1,1" size="65536"/>
			<output>
				<port id="1" precision="FP32">
					<dim>128</dim>
					<dim>128</dim>
					<dim>1</dim>
					<dim>1</dim>
				</port>
			</output>
		</layer>
		<layer id="107" name="20642068_const" type="Const" version="opset1">
			<data element_type="f32" offset="125600" shape="128,1,1,1" size="512"/>
			<output>
				<port id="1" precision="FP32">
					<dim>128</dim>
					<dim>1</dim>
					<dim>1</dim>
					<dim>1</dim>
				</port>
			</output>
		</layer>
		<layer id="108" name="20652069_const" type="Const" version="opset1">
			<data element_type="f32" offset="126112" shape="128,1,1,1" size="512"/>
			<output>
				<port id="1" precision="FP32">
					<dim>128</dim>
					<dim>1</dim>
					<dim>1</dim>
					<dim>1</dim>
				</port>
			</output>
		</layer>
		<layer id="109" name="20662070_const" type="Const" version="opset1">
			<data element_type="f32" offset="125600" shape="128,1,1,1" size="512"/>
			<output>
				<port id="1" precision="FP32">
					<dim>128</dim>
					<dim>1</dim>
					<dim>1</dim>
					<dim>1</dim>
				</port>
			</output>
		</layer>
		<layer id="110" name="20672071_const" type="Const" version="opset1">
			<data element_type="f32" offset="126112" shape="128,1,1,1" size="512"/>
			<output>
				<port id="1" precision="FP32">
					<dim>128</dim>
					<dim>1</dim>
					<dim>1</dim>
					<dim>1</dim>
				</port>
			</output>
		</layer>
		<layer id="111" name="conv3_1/sep/fq_weights_1" type="FakeQuantize" version="opset1">
			<data levels="255"/>
			<input>
				<port id="0">
					<dim>128</dim>
					<dim>128</dim>
					<dim>1</dim>
					<dim>1</dim>
				</port>
				<port id="1">
					<dim>128</dim>
					<dim>1</dim>
					<dim>1</dim>
					<dim>1</dim>
				</port>
				<port id="2">
					<dim>128</dim>
					<dim>1</dim>
					<dim>1</dim>
					<dim>1</dim>
				</port>
				<port id="3">
					<dim>128</dim>
					<dim>1</dim>
					<dim>1</dim>
					<dim>1</dim>
				</port>
				<port id="4">
					<dim>128</dim>
					<dim>1</dim>
					<dim>1</dim>
					<dim>1</dim>
				</port>
			</input>
			<output>
				<port id="5" precision="FP32">
					<dim>128</dim>
					<dim>128</dim>
					<dim>1</dim>
					<dim>1</dim>
				</port>
			</output>
		</layer>
		<layer id="112" name="conv3_1/sep" type="Convolution" version="opset1">
			<data dilations="1,1" output_padding="0,0" pads_begin="0,0" pads_end="0,0" strides="1,1"/>
			<input>
				<port id="0">
					<dim>1</dim>
					<dim>128</dim>
					<dim>64</dim>
					<dim>114</dim>
				</port>
				<port id="1">
					<dim>128</dim>
					<dim>128</dim>
					<dim>1</dim>
					<dim>1</dim>
				</port>
			</input>
			<output>
				<port id="2" precision="FP32">
					<dim>1</dim>
					<dim>128</dim>
					<dim>64</dim>
					<dim>114</dim>
				</port>
			</output>
		</layer>
		<layer id="113" name="data_add_89768981/copy_const360_const" type="Const" version="opset1">
			<data element_type="f32" offset="126624" shape="1,128,1,1" size="512"/>
			<output>
				<port id="1" precision="FP32">
					<dim>1</dim>
					<dim>128</dim>
					<dim>1</dim>
					<dim>1</dim>
				</port>
			</output>
		</layer>
		<layer id="114" name="Add1_7884/Fused_Add_" type="Add" version="opset1">
			<input>
				<port id="0">
					<dim>1</dim>
					<dim>128</dim>
					<dim>64</dim>
					<dim>114</dim>
				</port>
				<port id="1">
					<dim>1</dim>
					<dim>128</dim>
					<dim>1</dim>
					<dim>1</dim>
				</port>
			</input>
			<output>
				<port id="2" precision="FP32">
					<dim>1</dim>
					<dim>128</dim>
					<dim>64</dim>
					<dim>114</dim>
				</port>
			</output>
		</layer>
		<layer id="115" name="relu3_1/sep" type="ReLU" version="opset1">
			<input>
				<port id="0">
					<dim>1</dim>
					<dim>128</dim>
					<dim>64</dim>
					<dim>114</dim>
				</port>
			</input>
			<output>
				<port id="1" precision="FP32">
					<dim>1</dim>
					<dim>128</dim>
					<dim>64</dim>
					<dim>114</dim>
				</port>
			</output>
		</layer>
		<layer id="116" name="19141918_const" type="Const" version="opset1">
			<data element_type="f32" offset="52852" shape="1,128,1,1" size="512"/>
			<output>
				<port id="1" precision="FP32">
					<dim>1</dim>
					<dim>128</dim>
					<dim>1</dim>
					<dim>1</dim>
				</port>
			</output>
		</layer>
		<layer id="117" name="19151919_const" type="Const" version="opset1">
			<data element_type="f32" offset="127136" shape="1,128,1,1" size="512"/>
			<output>
				<port id="1" precision="FP32">
					<dim>1</dim>
					<dim>128</dim>
					<dim>1</dim>
					<dim>1</dim>
				</port>
			</output>
		</layer>
		<layer id="118" name="19161920_const" type="Const" version="opset1">
			<data element_type="f32" offset="52852" shape="1,128,1,1" size="512"/>
			<output>
				<port id="1" precision="FP32">
					<dim>1</dim>
					<dim>128</dim>
					<dim>1</dim>
					<dim>1</dim>
				</port>
			</output>
		</layer>
		<layer id="119" name="19171921_const" type="Const" version="opset1">
			<data element_type="f32" offset="127136" shape="1,128,1,1" size="512"/>
			<output>
				<port id="1" precision="FP32">
					<dim>1</dim>
					<dim>128</dim>
					<dim>1</dim>
					<dim>1</dim>
				</port>
			</output>
		</layer>
		<layer id="120" name="conv3_2/dw/fq_input_0" type="FakeQuantize" version="opset1">
			<data levels="256"/>
			<input>
				<port id="0">
					<dim>1</dim>
					<dim>128</dim>
					<dim>64</dim>
					<dim>114</dim>
				</port>
				<port id="1">
					<dim>1</dim>
					<dim>128</dim>
					<dim>1</dim>
					<dim>1</dim>
				</port>
				<port id="2">
					<dim>1</dim>
					<dim>128</dim>
					<dim>1</dim>
					<dim>1</dim>
				</port>
				<port id="3">
					<dim>1</dim>
					<dim>128</dim>
					<dim>1</dim>
					<dim>1</dim>
				</port>
				<port id="4">
					<dim>1</dim>
					<dim>128</dim>
					<dim>1</dim>
					<dim>1</dim>
				</port>
			</input>
			<output>
				<port id="5" precision="FP32">
					<dim>1</dim>
					<dim>128</dim>
					<dim>64</dim>
					<dim>114</dim>
				</port>
			</output>
		</layer>
		<layer id="121" name="714621_const" type="Const" version="opset1">
			<data element_type="f32" offset="127648" shape="128,1,3,3" size="4608"/>
			<output>
				<port id="1" precision="FP32">
					<dim>128</dim>
					<dim>1</dim>
					<dim>3</dim>
					<dim>3</dim>
				</port>
			</output>
		</layer>
		<layer id="122" name="19241928_const" type="Const" version="opset1">
			<data element_type="f32" offset="132256" shape="128,1,1,1" size="512"/>
			<output>
				<port id="1" precision="FP32">
					<dim>128</dim>
					<dim>1</dim>
					<dim>1</dim>
					<dim>1</dim>
				</port>
			</output>
		</layer>
		<layer id="123" name="19251929_const" type="Const" version="opset1">
			<data element_type="f32" offset="132768" shape="128,1,1,1" size="512"/>
			<output>
				<port id="1" precision="FP32">
					<dim>128</dim>
					<dim>1</dim>
					<dim>1</dim>
					<dim>1</dim>
				</port>
			</output>
		</layer>
		<layer id="124" name="19261930_const" type="Const" version="opset1">
			<data element_type="f32" offset="132256" shape="128,1,1,1" size="512"/>
			<output>
				<port id="1" precision="FP32">
					<dim>128</dim>
					<dim>1</dim>
					<dim>1</dim>
					<dim>1</dim>
				</port>
			</output>
		</layer>
		<layer id="125" name="19271931_const" type="Const" version="opset1">
			<data element_type="f32" offset="132768" shape="128,1,1,1" size="512"/>
			<output>
				<port id="1" precision="FP32">
					<dim>128</dim>
					<dim>1</dim>
					<dim>1</dim>
					<dim>1</dim>
				</port>
			</output>
		</layer>
		<layer id="126" name="conv3_2/dw/fq_weights_1" type="FakeQuantize" version="opset1">
			<data levels="255"/>
			<input>
				<port id="0">
					<dim>128</dim>
					<dim>1</dim>
					<dim>3</dim>
					<dim>3</dim>
				</port>
				<port id="1">
					<dim>128</dim>
					<dim>1</dim>
					<dim>1</dim>
					<dim>1</dim>
				</port>
				<port id="2">
					<dim>128</dim>
					<dim>1</dim>
					<dim>1</dim>
					<dim>1</dim>
				</port>
				<port id="3">
					<dim>128</dim>
					<dim>1</dim>
					<dim>1</dim>
					<dim>1</dim>
				</port>
				<port id="4">
					<dim>128</dim>
					<dim>1</dim>
					<dim>1</dim>
					<dim>1</dim>
				</port>
			</input>
			<output>
				<port id="5" precision="FP32">
					<dim>128</dim>
					<dim>1</dim>
					<dim>3</dim>
					<dim>3</dim>
				</port>
			</output>
		</layer>
		<layer id="127" name="4088/value4090_const" type="Const" version="opset1">
			<data element_type="i64" offset="59508" shape="5" size="40"/>
			<output>
				<port id="1" precision="I64">
					<dim>5</dim>
				</port>
			</output>
		</layer>
		<layer id="128" name="4088" type="Reshape" version="opset1">
			<data special_zero="True"/>
			<input>
				<port id="0">
					<dim>128</dim>
					<dim>1</dim>
					<dim>3</dim>
					<dim>3</dim>
				</port>
				<port id="1">
					<dim>5</dim>
				</port>
			</input>
			<output>
				<port id="2" precision="FP32">
					<dim>128</dim>
					<dim>1</dim>
					<dim>1</dim>
					<dim>3</dim>
					<dim>3</dim>
				</port>
			</output>
		</layer>
		<layer id="129" name="conv3_2/dw" type="GroupConvolution" version="opset1">
			<data dilations="1,1" output_padding="0,0" pads_begin="1,1" pads_end="1,1" strides="2,2"/>
			<input>
				<port id="0">
					<dim>1</dim>
					<dim>128</dim>
					<dim>64</dim>
					<dim>114</dim>
				</port>
				<port id="1">
					<dim>128</dim>
					<dim>1</dim>
					<dim>1</dim>
					<dim>3</dim>
					<dim>3</dim>
				</port>
			</input>
			<output>
				<port id="2" precision="FP32">
					<dim>1</dim>
					<dim>128</dim>
					<dim>32</dim>
					<dim>57</dim>
				</port>
			</output>
		</layer>
		<layer id="130" name="data_add_89848989/copy_const365_const" type="Const" version="opset1">
			<data element_type="f32" offset="133280" shape="1,128,1,1" size="512"/>
			<output>
				<port id="1" precision="FP32">
					<dim>1</dim>
					<dim>128</dim>
					<dim>1</dim>
					<dim>1</dim>
				</port>
			</output>
		</layer>
		<layer id="131" name="Add1_7896/Fused_Add_" type="Add" version="opset1">
			<input>
				<port id="0">
					<dim>1</dim>
					<dim>128</dim>
					<dim>32</dim>
					<dim>57</dim>
				</port>
				<port id="1">
					<dim>1</dim>
					<dim>128</dim>
					<dim>1</dim>
					<dim>1</dim>
				</port>
			</input>
			<output>
				<port id="2" precision="FP32">
					<dim>1</dim>
					<dim>128</dim>
					<dim>32</dim>
					<dim>57</dim>
				</port>
			</output>
		</layer>
		<layer id="132" name="relu3_2/dw" type="ReLU" version="opset1">
			<input>
				<port id="0">
					<dim>1</dim>
					<dim>128</dim>
					<dim>32</dim>
					<dim>57</dim>
				</port>
			</input>
			<output>
				<port id="1" precision="FP32">
					<dim>1</dim>
					<dim>128</dim>
					<dim>32</dim>
					<dim>57</dim>
				</port>
			</output>
		</layer>
		<layer id="133" name="10941098_const" type="Const" version="opset1">
			<data element_type="f32" offset="5952" shape="" size="4"/>
			<output>
				<port id="1" precision="FP32"/>
			</output>
		</layer>
		<layer id="134" name="10951099_const" type="Const" version="opset1">
			<data element_type="f32" offset="133792" shape="" size="4"/>
			<output>
				<port id="1" precision="FP32"/>
			</output>
		</layer>
		<layer id="135" name="10961100_const" type="Const" version="opset1">
			<data element_type="f32" offset="5952" shape="" size="4"/>
			<output>
				<port id="1" precision="FP32"/>
			</output>
		</layer>
		<layer id="136" name="10971101_const" type="Const" version="opset1">
			<data element_type="f32" offset="133792" shape="" size="4"/>
			<output>
				<port id="1" precision="FP32"/>
			</output>
		</layer>
		<layer id="137" name="conv3_2/sep/fq_input_0" type="FakeQuantize" version="opset1">
			<data levels="256"/>
			<input>
				<port id="0">
					<dim>1</dim>
					<dim>128</dim>
					<dim>32</dim>
					<dim>57</dim>
				</port>
				<port id="1"/>
				<port id="2"/>
				<port id="3"/>
				<port id="4"/>
			</input>
			<output>
				<port id="5" precision="FP32">
					<dim>1</dim>
					<dim>128</dim>
					<dim>32</dim>
					<dim>57</dim>
				</port>
			</output>
		</layer>
		<layer id="138" name="Mul1_7907/Fused_Mul_96109612_const368_const" type="Const" version="opset1">
			<data element_type="f32" offset="133796" shape="256,128,1,1" size="131072"/>
			<output>
				<port id="1" precision="FP32">
					<dim>256</dim>
					<dim>128</dim>
					<dim>1</dim>
					<dim>1</dim>
				</port>
			</output>
		</layer>
		<layer id="139" name="11041108_const" type="Const" version="opset1">
			<data element_type="f32" offset="264868" shape="256,1,1,1" size="1024"/>
			<output>
				<port id="1" precision="FP32">
					<dim>256</dim>
					<dim>1</dim>
					<dim>1</dim>
					<dim>1</dim>
				</port>
			</output>
		</layer>
		<layer id="140" name="11051109_const" type="Const" version="opset1">
			<data element_type="f32" offset="265892" shape="256,1,1,1" size="1024"/>
			<output>
				<port id="1" precision="FP32">
					<dim>256</dim>
					<dim>1</dim>
					<dim>1</dim>
					<dim>1</dim>
				</port>
			</output>
		</layer>
		<layer id="141" name="11061110_const" type="Const" version="opset1">
			<data element_type="f32" offset="264868" shape="256,1,1,1" size="1024"/>
			<output>
				<port id="1" precision="FP32">
					<dim>256</dim>
					<dim>1</dim>
					<dim>1</dim>
					<dim>1</dim>
				</port>
			</output>
		</layer>
		<layer id="142" name="11071111_const" type="Const" version="opset1">
			<data element_type="f32" offset="265892" shape="256,1,1,1" size="1024"/>
			<output>
				<port id="1" precision="FP32">
					<dim>256</dim>
					<dim>1</dim>
					<dim>1</dim>
					<dim>1</dim>
				</port>
			</output>
		</layer>
		<layer id="143" name="conv3_2/sep/fq_weights_1" type="FakeQuantize" version="opset1">
			<data levels="255"/>
			<input>
				<port id="0">
					<dim>256</dim>
					<dim>128</dim>
					<dim>1</dim>
					<dim>1</dim>
				</port>
				<port id="1">
					<dim>256</dim>
					<dim>1</dim>
					<dim>1</dim>
					<dim>1</dim>
				</port>
				<port id="2">
					<dim>256</dim>
					<dim>1</dim>
					<dim>1</dim>
					<dim>1</dim>
				</port>
				<port id="3">
					<dim>256</dim>
					<dim>1</dim>
					<dim>1</dim>
					<dim>1</dim>
				</port>
				<port id="4">
					<dim>256</dim>
					<dim>1</dim>
					<dim>1</dim>
					<dim>1</dim>
				</port>
			</input>
			<output>
				<port id="5" precision="FP32">
					<dim>256</dim>
					<dim>128</dim>
					<dim>1</dim>
					<dim>1</dim>
				</port>
			</output>
		</layer>
		<layer id="144" name="conv3_2/sep" type="Convolution" version="opset1">
			<data dilations="1,1" output_padding="0,0" pads_begin="0,0" pads_end="0,0" strides="1,1"/>
			<input>
				<port id="0">
					<dim>1</dim>
					<dim>128</dim>
					<dim>32</dim>
					<dim>57</dim>
				</port>
				<port id="1">
					<dim>256</dim>
					<dim>128</dim>
					<dim>1</dim>
					<dim>1</dim>
				</port>
			</input>
			<output>
				<port id="2" precision="FP32">
					<dim>1</dim>
					<dim>256</dim>
					<dim>32</dim>
					<dim>57</dim>
				</port>
			</output>
		</layer>
		<layer id="145" name="data_add_89928997/copy_const370_const" type="Const" version="opset1">
			<data element_type="f32" offset="266916" shape="1,256,1,1" size="1024"/>
			<output>
				<port id="1" precision="FP32">
					<dim>1</dim>
					<dim>256</dim>
					<dim>1</dim>
					<dim>1</dim>
				</port>
			</output>
		</layer>
		<layer id="146" name="Add1_7908/Fused_Add_" type="Add" version="opset1">
			<input>
				<port id="0">
					<dim>1</dim>
					<dim>256</dim>
					<dim>32</dim>
					<dim>57</dim>
				</port>
				<port id="1">
					<dim>1</dim>
					<dim>256</dim>
					<dim>1</dim>
					<dim>1</dim>
				</port>
			</input>
			<output>
				<port id="2" precision="FP32">
					<dim>1</dim>
					<dim>256</dim>
					<dim>32</dim>
					<dim>57</dim>
				</port>
			</output>
		</layer>
		<layer id="147" name="relu3_2/sep" type="ReLU" version="opset1">
			<input>
				<port id="0">
					<dim>1</dim>
					<dim>256</dim>
					<dim>32</dim>
					<dim>57</dim>
				</port>
			</input>
			<output>
				<port id="1" precision="FP32">
					<dim>1</dim>
					<dim>256</dim>
					<dim>32</dim>
					<dim>57</dim>
				</port>
			</output>
		</layer>
		<layer id="148" name="12341238_const" type="Const" version="opset1">
			<data element_type="f32" offset="267940" shape="1,256,1,1" size="1024"/>
			<output>
				<port id="1" precision="FP32">
					<dim>1</dim>
					<dim>256</dim>
					<dim>1</dim>
					<dim>1</dim>
				</port>
			</output>
		</layer>
		<layer id="149" name="12351239_const" type="Const" version="opset1">
			<data element_type="f32" offset="268964" shape="1,256,1,1" size="1024"/>
			<output>
				<port id="1" precision="FP32">
					<dim>1</dim>
					<dim>256</dim>
					<dim>1</dim>
					<dim>1</dim>
				</port>
			</output>
		</layer>
		<layer id="150" name="12361240_const" type="Const" version="opset1">
			<data element_type="f32" offset="267940" shape="1,256,1,1" size="1024"/>
			<output>
				<port id="1" precision="FP32">
					<dim>1</dim>
					<dim>256</dim>
					<dim>1</dim>
					<dim>1</dim>
				</port>
			</output>
		</layer>
		<layer id="151" name="12371241_const" type="Const" version="opset1">
			<data element_type="f32" offset="268964" shape="1,256,1,1" size="1024"/>
			<output>
				<port id="1" precision="FP32">
					<dim>1</dim>
					<dim>256</dim>
					<dim>1</dim>
					<dim>1</dim>
				</port>
			</output>
		</layer>
		<layer id="152" name="conv4_1/dw/fq_input_0" type="FakeQuantize" version="opset1">
			<data levels="256"/>
			<input>
				<port id="0">
					<dim>1</dim>
					<dim>256</dim>
					<dim>32</dim>
					<dim>57</dim>
				</port>
				<port id="1">
					<dim>1</dim>
					<dim>256</dim>
					<dim>1</dim>
					<dim>1</dim>
				</port>
				<port id="2">
					<dim>1</dim>
					<dim>256</dim>
					<dim>1</dim>
					<dim>1</dim>
				</port>
				<port id="3">
					<dim>1</dim>
					<dim>256</dim>
					<dim>1</dim>
					<dim>1</dim>
				</port>
				<port id="4">
					<dim>1</dim>
					<dim>256</dim>
					<dim>1</dim>
					<dim>1</dim>
				</port>
			</input>
			<output>
				<port id="5" precision="FP32">
					<dim>1</dim>
					<dim>256</dim>
					<dim>32</dim>
					<dim>57</dim>
				</port>
			</output>
		</layer>
		<layer id="153" name="718623_const" type="Const" version="opset1">
			<data element_type="f32" offset="269988" shape="256,1,3,3" size="9216"/>
			<output>
				<port id="1" precision="FP32">
					<dim>256</dim>
					<dim>1</dim>
					<dim>3</dim>
					<dim>3</dim>
				</port>
			</output>
		</layer>
		<layer id="154" name="12441248_const" type="Const" version="opset1">
			<data element_type="f32" offset="279204" shape="256,1,1,1" size="1024"/>
			<output>
				<port id="1" precision="FP32">
					<dim>256</dim>
					<dim>1</dim>
					<dim>1</dim>
					<dim>1</dim>
				</port>
			</output>
		</layer>
		<layer id="155" name="12451249_const" type="Const" version="opset1">
			<data element_type="f32" offset="280228" shape="256,1,1,1" size="1024"/>
			<output>
				<port id="1" precision="FP32">
					<dim>256</dim>
					<dim>1</dim>
					<dim>1</dim>
					<dim>1</dim>
				</port>
			</output>
		</layer>
		<layer id="156" name="12461250_const" type="Const" version="opset1">
			<data element_type="f32" offset="279204" shape="256,1,1,1" size="1024"/>
			<output>
				<port id="1" precision="FP32">
					<dim>256</dim>
					<dim>1</dim>
					<dim>1</dim>
					<dim>1</dim>
				</port>
			</output>
		</layer>
		<layer id="157" name="12471251_const" type="Const" version="opset1">
			<data element_type="f32" offset="280228" shape="256,1,1,1" size="1024"/>
			<output>
				<port id="1" precision="FP32">
					<dim>256</dim>
					<dim>1</dim>
					<dim>1</dim>
					<dim>1</dim>
				</port>
			</output>
		</layer>
		<layer id="158" name="conv4_1/dw/fq_weights_1" type="FakeQuantize" version="opset1">
			<data levels="255"/>
			<input>
				<port id="0">
					<dim>256</dim>
					<dim>1</dim>
					<dim>3</dim>
					<dim>3</dim>
				</port>
				<port id="1">
					<dim>256</dim>
					<dim>1</dim>
					<dim>1</dim>
					<dim>1</dim>
				</port>
				<port id="2">
					<dim>256</dim>
					<dim>1</dim>
					<dim>1</dim>
					<dim>1</dim>
				</port>
				<port id="3">
					<dim>256</dim>
					<dim>1</dim>
					<dim>1</dim>
					<dim>1</dim>
				</port>
				<port id="4">
					<dim>256</dim>
					<dim>1</dim>
					<dim>1</dim>
					<dim>1</dim>
				</port>
			</input>
			<output>
				<port id="5" precision="FP32">
					<dim>256</dim>
					<dim>1</dim>
					<dim>3</dim>
					<dim>3</dim>
				</port>
			</output>
		</layer>
		<layer id="159" name="4072/value4074_const" type="Const" version="opset1">
			<data element_type="i64" offset="281252" shape="5" size="40"/>
			<output>
				<port id="1" precision="I64">
					<dim>5</dim>
				</port>
			</output>
		</layer>
		<layer id="160" name="4072" type="Reshape" version="opset1">
			<data special_zero="True"/>
			<input>
				<port id="0">
					<dim>256</dim>
					<dim>1</dim>
					<dim>3</dim>
					<dim>3</dim>
				</port>
				<port id="1">
					<dim>5</dim>
				</port>
			</input>
			<output>
				<port id="2" precision="FP32">
					<dim>256</dim>
					<dim>1</dim>
					<dim>1</dim>
					<dim>3</dim>
					<dim>3</dim>
				</port>
			</output>
		</layer>
		<layer id="161" name="conv4_1/dw" type="GroupConvolution" version="opset1">
			<data dilations="1,1" output_padding="0,0" pads_begin="1,1" pads_end="1,1" strides="1,1"/>
			<input>
				<port id="0">
					<dim>1</dim>
					<dim>256</dim>
					<dim>32</dim>
					<dim>57</dim>
				</port>
				<port id="1">
					<dim>256</dim>
					<dim>1</dim>
					<dim>1</dim>
					<dim>3</dim>
					<dim>3</dim>
				</port>
			</input>
			<output>
				<port id="2" precision="FP32">
					<dim>1</dim>
					<dim>256</dim>
					<dim>32</dim>
					<dim>57</dim>
				</port>
			</output>
		</layer>
		<layer id="162" name="data_add_90009005/copy_const375_const" type="Const" version="opset1">
			<data element_type="f32" offset="281292" shape="1,256,1,1" size="1024"/>
			<output>
				<port id="1" precision="FP32">
					<dim>1</dim>
					<dim>256</dim>
					<dim>1</dim>
					<dim>1</dim>
				</port>
			</output>
		</layer>
		<layer id="163" name="Add1_7920/Fused_Add_" type="Add" version="opset1">
			<input>
				<port id="0">
					<dim>1</dim>
					<dim>256</dim>
					<dim>32</dim>
					<dim>57</dim>
				</port>
				<port id="1">
					<dim>1</dim>
					<dim>256</dim>
					<dim>1</dim>
					<dim>1</dim>
				</port>
			</input>
			<output>
				<port id="2" precision="FP32">
					<dim>1</dim>
					<dim>256</dim>
					<dim>32</dim>
					<dim>57</dim>
				</port>
			</output>
		</layer>
		<layer id="164" name="relu4_1/dw" type="ReLU" version="opset1">
			<input>
				<port id="0">
					<dim>1</dim>
					<dim>256</dim>
					<dim>32</dim>
					<dim>57</dim>
				</port>
			</input>
			<output>
				<port id="1" precision="FP32">
					<dim>1</dim>
					<dim>256</dim>
					<dim>32</dim>
					<dim>57</dim>
				</port>
			</output>
		</layer>
		<layer id="165" name="20342038_const" type="Const" version="opset1">
			<data element_type="f32" offset="5952" shape="" size="4"/>
			<output>
				<port id="1" precision="FP32"/>
			</output>
		</layer>
		<layer id="166" name="20352039_const" type="Const" version="opset1">
			<data element_type="f32" offset="282316" shape="" size="4"/>
			<output>
				<port id="1" precision="FP32"/>
			</output>
		</layer>
		<layer id="167" name="20362040_const" type="Const" version="opset1">
			<data element_type="f32" offset="5952" shape="" size="4"/>
			<output>
				<port id="1" precision="FP32"/>
			</output>
		</layer>
		<layer id="168" name="20372041_const" type="Const" version="opset1">
			<data element_type="f32" offset="282316" shape="" size="4"/>
			<output>
				<port id="1" precision="FP32"/>
			</output>
		</layer>
		<layer id="169" name="conv4_1/sep/fq_input_0" type="FakeQuantize" version="opset1">
			<data levels="256"/>
			<input>
				<port id="0">
					<dim>1</dim>
					<dim>256</dim>
					<dim>32</dim>
					<dim>57</dim>
				</port>
				<port id="1"/>
				<port id="2"/>
				<port id="3"/>
				<port id="4"/>
			</input>
			<output>
				<port id="5" precision="FP32">
					<dim>1</dim>
					<dim>256</dim>
					<dim>32</dim>
					<dim>57</dim>
				</port>
			</output>
		</layer>
		<layer id="170" name="Mul1_7931/Fused_Mul_96189620_const378_const" type="Const" version="opset1">
			<data element_type="f32" offset="282320" shape="256,256,1,1" size="262144"/>
			<output>
				<port id="1" precision="FP32">
					<dim>256</dim>
					<dim>256</dim>
					<dim>1</dim>
					<dim>1</dim>
				</port>
			</output>
		</layer>
		<layer id="171" name="20442048_const" type="Const" version="opset1">
			<data element_type="f32" offset="544464" shape="256,1,1,1" size="1024"/>
			<output>
				<port id="1" precision="FP32">
					<dim>256</dim>
					<dim>1</dim>
					<dim>1</dim>
					<dim>1</dim>
				</port>
			</output>
		</layer>
		<layer id="172" name="20452049_const" type="Const" version="opset1">
			<data element_type="f32" offset="545488" shape="256,1,1,1" size="1024"/>
			<output>
				<port id="1" precision="FP32">
					<dim>256</dim>
					<dim>1</dim>
					<dim>1</dim>
					<dim>1</dim>
				</port>
			</output>
		</layer>
		<layer id="173" name="20462050_const" type="Const" version="opset1">
			<data element_type="f32" offset="544464" shape="256,1,1,1" size="1024"/>
			<output>
				<port id="1" precision="FP32">
					<dim>256</dim>
					<dim>1</dim>
					<dim>1</dim>
					<dim>1</dim>
				</port>
			</output>
		</layer>
		<layer id="174" name="20472051_const" type="Const" version="opset1">
			<data element_type="f32" offset="545488" shape="256,1,1,1" size="1024"/>
			<output>
				<port id="1" precision="FP32">
					<dim>256</dim>
					<dim>1</dim>
					<dim>1</dim>
					<dim>1</dim>
				</port>
			</output>
		</layer>
		<layer id="175" name="conv4_1/sep/fq_weights_1" type="FakeQuantize" version="opset1">
			<data levels="255"/>
			<input>
				<port id="0">
					<dim>256</dim>
					<dim>256</dim>
					<dim>1</dim>
					<dim>1</dim>
				</port>
				<port id="1">
					<dim>256</dim>
					<dim>1</dim>
					<dim>1</dim>
					<dim>1</dim>
				</port>
				<port id="2">
					<dim>256</dim>
					<dim>1</dim>
					<dim>1</dim>
					<dim>1</dim>
				</port>
				<port id="3">
					<dim>256</dim>
					<dim>1</dim>
					<dim>1</dim>
					<dim>1</dim>
				</port>
				<port id="4">
					<dim>256</dim>
					<dim>1</dim>
					<dim>1</dim>
					<dim>1</dim>
				</port>
			</input>
			<output>
				<port id="5" precision="FP32">
					<dim>256</dim>
					<dim>256</dim>
					<dim>1</dim>
					<dim>1</dim>
				</port>
			</output>
		</layer>
		<layer id="176" name="conv4_1/sep" type="Convolution" version="opset1">
			<data dilations="1,1" output_padding="0,0" pads_begin="0,0" pads_end="0,0" strides="1,1"/>
			<input>
				<port id="0">
					<dim>1</dim>
					<dim>256</dim>
					<dim>32</dim>
					<dim>57</dim>
				</port>
				<port id="1">
					<dim>256</dim>
					<dim>256</dim>
					<dim>1</dim>
					<dim>1</dim>
				</port>
			</input>
			<output>
				<port id="2" precision="FP32">
					<dim>1</dim>
					<dim>256</dim>
					<dim>32</dim>
					<dim>57</dim>
				</port>
			</output>
		</layer>
		<layer id="177" name="data_add_90089013/copy_const380_const" type="Const" version="opset1">
			<data element_type="f32" offset="546512" shape="1,256,1,1" size="1024"/>
			<output>
				<port id="1" precision="FP32">
					<dim>1</dim>
					<dim>256</dim>
					<dim>1</dim>
					<dim>1</dim>
				</port>
			</output>
		</layer>
		<layer id="178" name="Add1_7932/Fused_Add_" type="Add" version="opset1">
			<input>
				<port id="0">
					<dim>1</dim>
					<dim>256</dim>
					<dim>32</dim>
					<dim>57</dim>
				</port>
				<port id="1">
					<dim>1</dim>
					<dim>256</dim>
					<dim>1</dim>
					<dim>1</dim>
				</port>
			</input>
			<output>
				<port id="2" precision="FP32">
					<dim>1</dim>
					<dim>256</dim>
					<dim>32</dim>
					<dim>57</dim>
				</port>
			</output>
		</layer>
		<layer id="179" name="relu4_1/sep" type="ReLU" version="opset1">
			<input>
				<port id="0">
					<dim>1</dim>
					<dim>256</dim>
					<dim>32</dim>
					<dim>57</dim>
				</port>
			</input>
			<output>
				<port id="1" precision="FP32">
					<dim>1</dim>
					<dim>256</dim>
					<dim>32</dim>
					<dim>57</dim>
				</port>
			</output>
		</layer>
		<layer id="180" name="13941398_const" type="Const" version="opset1">
			<data element_type="f32" offset="267940" shape="1,256,1,1" size="1024"/>
			<output>
				<port id="1" precision="FP32">
					<dim>1</dim>
					<dim>256</dim>
					<dim>1</dim>
					<dim>1</dim>
				</port>
			</output>
		</layer>
		<layer id="181" name="13951399_const" type="Const" version="opset1">
			<data element_type="f32" offset="547536" shape="1,256,1,1" size="1024"/>
			<output>
				<port id="1" precision="FP32">
					<dim>1</dim>
					<dim>256</dim>
					<dim>1</dim>
					<dim>1</dim>
				</port>
			</output>
		</layer>
		<layer id="182" name="13961400_const" type="Const" version="opset1">
			<data element_type="f32" offset="267940" shape="1,256,1,1" size="1024"/>
			<output>
				<port id="1" precision="FP32">
					<dim>1</dim>
					<dim>256</dim>
					<dim>1</dim>
					<dim>1</dim>
				</port>
			</output>
		</layer>
		<layer id="183" name="13971401_const" type="Const" version="opset1">
			<data element_type="f32" offset="547536" shape="1,256,1,1" size="1024"/>
			<output>
				<port id="1" precision="FP32">
					<dim>1</dim>
					<dim>256</dim>
					<dim>1</dim>
					<dim>1</dim>
				</port>
			</output>
		</layer>
		<layer id="184" name="conv4_2/dw/fq_input_0" type="FakeQuantize" version="opset1">
			<data levels="256"/>
			<input>
				<port id="0">
					<dim>1</dim>
					<dim>256</dim>
					<dim>32</dim>
					<dim>57</dim>
				</port>
				<port id="1">
					<dim>1</dim>
					<dim>256</dim>
					<dim>1</dim>
					<dim>1</dim>
				</port>
				<port id="2">
					<dim>1</dim>
					<dim>256</dim>
					<dim>1</dim>
					<dim>1</dim>
				</port>
				<port id="3">
					<dim>1</dim>
					<dim>256</dim>
					<dim>1</dim>
					<dim>1</dim>
				</port>
				<port id="4">
					<dim>1</dim>
					<dim>256</dim>
					<dim>1</dim>
					<dim>1</dim>
				</port>
			</input>
			<output>
				<port id="5" precision="FP32">
					<dim>1</dim>
					<dim>256</dim>
					<dim>32</dim>
					<dim>57</dim>
				</port>
			</output>
		</layer>
		<layer id="185" name="722625_const" type="Const" version="opset1">
			<data element_type="f32" offset="548560" shape="256,1,3,3" size="9216"/>
			<output>
				<port id="1" precision="FP32">
					<dim>256</dim>
					<dim>1</dim>
					<dim>3</dim>
					<dim>3</dim>
				</port>
			</output>
		</layer>
		<layer id="186" name="14041408_const" type="Const" version="opset1">
			<data element_type="f32" offset="557776" shape="256,1,1,1" size="1024"/>
			<output>
				<port id="1" precision="FP32">
					<dim>256</dim>
					<dim>1</dim>
					<dim>1</dim>
					<dim>1</dim>
				</port>
			</output>
		</layer>
		<layer id="187" name="14051409_const" type="Const" version="opset1">
			<data element_type="f32" offset="558800" shape="256,1,1,1" size="1024"/>
			<output>
				<port id="1" precision="FP32">
					<dim>256</dim>
					<dim>1</dim>
					<dim>1</dim>
					<dim>1</dim>
				</port>
			</output>
		</layer>
		<layer id="188" name="14061410_const" type="Const" version="opset1">
			<data element_type="f32" offset="557776" shape="256,1,1,1" size="1024"/>
			<output>
				<port id="1" precision="FP32">
					<dim>256</dim>
					<dim>1</dim>
					<dim>1</dim>
					<dim>1</dim>
				</port>
			</output>
		</layer>
		<layer id="189" name="14071411_const" type="Const" version="opset1">
			<data element_type="f32" offset="558800" shape="256,1,1,1" size="1024"/>
			<output>
				<port id="1" precision="FP32">
					<dim>256</dim>
					<dim>1</dim>
					<dim>1</dim>
					<dim>1</dim>
				</port>
			</output>
		</layer>
		<layer id="190" name="conv4_2/dw/fq_weights_1" type="FakeQuantize" version="opset1">
			<data levels="255"/>
			<input>
				<port id="0">
					<dim>256</dim>
					<dim>1</dim>
					<dim>3</dim>
					<dim>3</dim>
				</port>
				<port id="1">
					<dim>256</dim>
					<dim>1</dim>
					<dim>1</dim>
					<dim>1</dim>
				</port>
				<port id="2">
					<dim>256</dim>
					<dim>1</dim>
					<dim>1</dim>
					<dim>1</dim>
				</port>
				<port id="3">
					<dim>256</dim>
					<dim>1</dim>
					<dim>1</dim>
					<dim>1</dim>
				</port>
				<port id="4">
					<dim>256</dim>
					<dim>1</dim>
					<dim>1</dim>
					<dim>1</dim>
				</port>
			</input>
			<output>
				<port id="5" precision="FP32">
					<dim>256</dim>
					<dim>1</dim>
					<dim>3</dim>
					<dim>3</dim>
				</port>
			</output>
		</layer>
		<layer id="191" name="4076/value4078_const" type="Const" version="opset1">
			<data element_type="i64" offset="281252" shape="5" size="40"/>
			<output>
				<port id="1" precision="I64">
					<dim>5</dim>
				</port>
			</output>
		</layer>
		<layer id="192" name="4076" type="Reshape" version="opset1">
			<data special_zero="True"/>
			<input>
				<port id="0">
					<dim>256</dim>
					<dim>1</dim>
					<dim>3</dim>
					<dim>3</dim>
				</port>
				<port id="1">
					<dim>5</dim>
				</port>
			</input>
			<output>
				<port id="2" precision="FP32">
					<dim>256</dim>
					<dim>1</dim>
					<dim>1</dim>
					<dim>3</dim>
					<dim>3</dim>
				</port>
			</output>
		</layer>
		<layer id="193" name="conv4_2/dw" type="GroupConvolution" version="opset1">
			<data dilations="1,1" output_padding="0,0" pads_begin="1,1" pads_end="1,1" strides="1,1"/>
			<input>
				<port id="0">
					<dim>1</dim>
					<dim>256</dim>
					<dim>32</dim>
					<dim>57</dim>
				</port>
				<port id="1">
					<dim>256</dim>
					<dim>1</dim>
					<dim>1</dim>
					<dim>3</dim>
					<dim>3</dim>
				</port>
			</input>
			<output>
				<port id="2" precision="FP32">
					<dim>1</dim>
					<dim>256</dim>
					<dim>32</dim>
					<dim>57</dim>
				</port>
			</output>
		</layer>
		<layer id="194" name="data_add_90169021/copy_const385_const" type="Const" version="opset1">
			<data element_type="f32" offset="559824" shape="1,256,1,1" size="1024"/>
			<output>
				<port id="1" precision="FP32">
					<dim>1</dim>
					<dim>256</dim>
					<dim>1</dim>
					<dim>1</dim>
				</port>
			</output>
		</layer>
		<layer id="195" name="Add1_7944/Fused_Add_" type="Add" version="opset1">
			<input>
				<port id="0">
					<dim>1</dim>
					<dim>256</dim>
					<dim>32</dim>
					<dim>57</dim>
				</port>
				<port id="1">
					<dim>1</dim>
					<dim>256</dim>
					<dim>1</dim>
					<dim>1</dim>
				</port>
			</input>
			<output>
				<port id="2" precision="FP32">
					<dim>1</dim>
					<dim>256</dim>
					<dim>32</dim>
					<dim>57</dim>
				</port>
			</output>
		</layer>
		<layer id="196" name="relu4_2/dw" type="ReLU" version="opset1">
			<input>
				<port id="0">
					<dim>1</dim>
					<dim>256</dim>
					<dim>32</dim>
					<dim>57</dim>
				</port>
			</input>
			<output>
				<port id="1" precision="FP32">
					<dim>1</dim>
					<dim>256</dim>
					<dim>32</dim>
					<dim>57</dim>
				</port>
			</output>
		</layer>
		<layer id="197" name="974978_const" type="Const" version="opset1">
			<data element_type="f32" offset="5952" shape="" size="4"/>
			<output>
				<port id="1" precision="FP32"/>
			</output>
		</layer>
		<layer id="198" name="975979_const" type="Const" version="opset1">
			<data element_type="f32" offset="560848" shape="" size="4"/>
			<output>
				<port id="1" precision="FP32"/>
			</output>
		</layer>
		<layer id="199" name="976980_const" type="Const" version="opset1">
			<data element_type="f32" offset="5952" shape="" size="4"/>
			<output>
				<port id="1" precision="FP32"/>
			</output>
		</layer>
		<layer id="200" name="977981_const" type="Const" version="opset1">
			<data element_type="f32" offset="560848" shape="" size="4"/>
			<output>
				<port id="1" precision="FP32"/>
			</output>
		</layer>
		<layer id="201" name="conv4_2/sep/fq_input_0" type="FakeQuantize" version="opset1">
			<data levels="256"/>
			<input>
				<port id="0">
					<dim>1</dim>
					<dim>256</dim>
					<dim>32</dim>
					<dim>57</dim>
				</port>
				<port id="1"/>
				<port id="2"/>
				<port id="3"/>
				<port id="4"/>
			</input>
			<output>
				<port id="5" precision="FP32">
					<dim>1</dim>
					<dim>256</dim>
					<dim>32</dim>
					<dim>57</dim>
				</port>
			</output>
		</layer>
		<layer id="202" name="Mul1_7955/Fused_Mul_96269628_const388_const" type="Const" version="opset1">
			<data element_type="f32" offset="560852" shape="512,256,1,1" size="524288"/>
			<output>
				<port id="1" precision="FP32">
					<dim>512</dim>
					<dim>256</dim>
					<dim>1</dim>
					<dim>1</dim>
				</port>
			</output>
		</layer>
		<layer id="203" name="984988_const" type="Const" version="opset1">
			<data element_type="f32" offset="1085140" shape="512,1,1,1" size="2048"/>
			<output>
				<port id="1" precision="FP32">
					<dim>512</dim>
					<dim>1</dim>
					<dim>1</dim>
					<dim>1</dim>
				</port>
			</output>
		</layer>
		<layer id="204" name="985989_const" type="Const" version="opset1">
			<data element_type="f32" offset="1087188" shape="512,1,1,1" size="2048"/>
			<output>
				<port id="1" precision="FP32">
					<dim>512</dim>
					<dim>1</dim>
					<dim>1</dim>
					<dim>1</dim>
				</port>
			</output>
		</layer>
		<layer id="205" name="986990_const" type="Const" version="opset1">
			<data element_type="f32" offset="1085140" shape="512,1,1,1" size="2048"/>
			<output>
				<port id="1" precision="FP32">
					<dim>512</dim>
					<dim>1</dim>
					<dim>1</dim>
					<dim>1</dim>
				</port>
			</output>
		</layer>
		<layer id="206" name="987991_const" type="Const" version="opset1">
			<data element_type="f32" offset="1087188" shape="512,1,1,1" size="2048"/>
			<output>
				<port id="1" precision="FP32">
					<dim>512</dim>
					<dim>1</dim>
					<dim>1</dim>
					<dim>1</dim>
				</port>
			</output>
		</layer>
		<layer id="207" name="conv4_2/sep/fq_weights_1" type="FakeQuantize" version="opset1">
			<data levels="255"/>
			<input>
				<port id="0">
					<dim>512</dim>
					<dim>256</dim>
					<dim>1</dim>
					<dim>1</dim>
				</port>
				<port id="1">
					<dim>512</dim>
					<dim>1</dim>
					<dim>1</dim>
					<dim>1</dim>
				</port>
				<port id="2">
					<dim>512</dim>
					<dim>1</dim>
					<dim>1</dim>
					<dim>1</dim>
				</port>
				<port id="3">
					<dim>512</dim>
					<dim>1</dim>
					<dim>1</dim>
					<dim>1</dim>
				</port>
				<port id="4">
					<dim>512</dim>
					<dim>1</dim>
					<dim>1</dim>
					<dim>1</dim>
				</port>
			</input>
			<output>
				<port id="5" precision="FP32">
					<dim>512</dim>
					<dim>256</dim>
					<dim>1</dim>
					<dim>1</dim>
				</port>
			</output>
		</layer>
		<layer id="208" name="conv4_2/sep" type="Convolution" version="opset1">
			<data dilations="1,1" output_padding="0,0" pads_begin="0,0" pads_end="0,0" strides="1,1"/>
			<input>
				<port id="0">
					<dim>1</dim>
					<dim>256</dim>
					<dim>32</dim>
					<dim>57</dim>
				</port>
				<port id="1">
					<dim>512</dim>
					<dim>256</dim>
					<dim>1</dim>
					<dim>1</dim>
				</port>
			</input>
			<output>
				<port id="2" precision="FP32">
					<dim>1</dim>
					<dim>512</dim>
					<dim>32</dim>
					<dim>57</dim>
				</port>
			</output>
		</layer>
		<layer id="209" name="data_add_90249029/copy_const390_const" type="Const" version="opset1">
			<data element_type="f32" offset="1089236" shape="1,512,1,1" size="2048"/>
			<output>
				<port id="1" precision="FP32">
					<dim>1</dim>
					<dim>512</dim>
					<dim>1</dim>
					<dim>1</dim>
				</port>
			</output>
		</layer>
		<layer id="210" name="Add1_7956/Fused_Add_" type="Add" version="opset1">
			<input>
				<port id="0">
					<dim>1</dim>
					<dim>512</dim>
					<dim>32</dim>
					<dim>57</dim>
				</port>
				<port id="1">
					<dim>1</dim>
					<dim>512</dim>
					<dim>1</dim>
					<dim>1</dim>
				</port>
			</input>
			<output>
				<port id="2" precision="FP32">
					<dim>1</dim>
					<dim>512</dim>
					<dim>32</dim>
					<dim>57</dim>
				</port>
			</output>
		</layer>
		<layer id="211" name="relu4_2/sep" type="ReLU" version="opset1">
			<input>
				<port id="0">
					<dim>1</dim>
					<dim>512</dim>
					<dim>32</dim>
					<dim>57</dim>
				</port>
			</input>
			<output>
				<port id="1" precision="FP32">
					<dim>1</dim>
					<dim>512</dim>
					<dim>32</dim>
					<dim>57</dim>
				</port>
			</output>
		</layer>
		<layer id="212" name="934938_const" type="Const" version="opset1">
			<data element_type="f32" offset="1091284" shape="1,512,1,1" size="2048"/>
			<output>
				<port id="1" precision="FP32">
					<dim>1</dim>
					<dim>512</dim>
					<dim>1</dim>
					<dim>1</dim>
				</port>
			</output>
		</layer>
		<layer id="213" name="935939_const" type="Const" version="opset1">
			<data element_type="f32" offset="1093332" shape="1,512,1,1" size="2048"/>
			<output>
				<port id="1" precision="FP32">
					<dim>1</dim>
					<dim>512</dim>
					<dim>1</dim>
					<dim>1</dim>
				</port>
			</output>
		</layer>
		<layer id="214" name="936940_const" type="Const" version="opset1">
			<data element_type="f32" offset="1091284" shape="1,512,1,1" size="2048"/>
			<output>
				<port id="1" precision="FP32">
					<dim>1</dim>
					<dim>512</dim>
					<dim>1</dim>
					<dim>1</dim>
				</port>
			</output>
		</layer>
		<layer id="215" name="937941_const" type="Const" version="opset1">
			<data element_type="f32" offset="1093332" shape="1,512,1,1" size="2048"/>
			<output>
				<port id="1" precision="FP32">
					<dim>1</dim>
					<dim>512</dim>
					<dim>1</dim>
					<dim>1</dim>
				</port>
			</output>
		</layer>
		<layer id="216" name="conv5_1/dw/fq_input_0" type="FakeQuantize" version="opset1">
			<data levels="256"/>
			<input>
				<port id="0">
					<dim>1</dim>
					<dim>512</dim>
					<dim>32</dim>
					<dim>57</dim>
				</port>
				<port id="1">
					<dim>1</dim>
					<dim>512</dim>
					<dim>1</dim>
					<dim>1</dim>
				</port>
				<port id="2">
					<dim>1</dim>
					<dim>512</dim>
					<dim>1</dim>
					<dim>1</dim>
				</port>
				<port id="3">
					<dim>1</dim>
					<dim>512</dim>
					<dim>1</dim>
					<dim>1</dim>
				</port>
				<port id="4">
					<dim>1</dim>
					<dim>512</dim>
					<dim>1</dim>
					<dim>1</dim>
				</port>
			</input>
			<output>
				<port id="5" precision="FP32">
					<dim>1</dim>
					<dim>512</dim>
					<dim>32</dim>
					<dim>57</dim>
				</port>
			</output>
		</layer>
		<layer id="217" name="726627_const" type="Const" version="opset1">
			<data element_type="f32" offset="1095380" shape="512,1,3,3" size="18432"/>
			<output>
				<port id="1" precision="FP32">
					<dim>512</dim>
					<dim>1</dim>
					<dim>3</dim>
					<dim>3</dim>
				</port>
			</output>
		</layer>
		<layer id="218" name="944948_const" type="Const" version="opset1">
			<data element_type="f32" offset="1113812" shape="512,1,1,1" size="2048"/>
			<output>
				<port id="1" precision="FP32">
					<dim>512</dim>
					<dim>1</dim>
					<dim>1</dim>
					<dim>1</dim>
				</port>
			</output>
		</layer>
		<layer id="219" name="945949_const" type="Const" version="opset1">
			<data element_type="f32" offset="1115860" shape="512,1,1,1" size="2048"/>
			<output>
				<port id="1" precision="FP32">
					<dim>512</dim>
					<dim>1</dim>
					<dim>1</dim>
					<dim>1</dim>
				</port>
			</output>
		</layer>
		<layer id="220" name="946950_const" type="Const" version="opset1">
			<data element_type="f32" offset="1113812" shape="512,1,1,1" size="2048"/>
			<output>
				<port id="1" precision="FP32">
					<dim>512</dim>
					<dim>1</dim>
					<dim>1</dim>
					<dim>1</dim>
				</port>
			</output>
		</layer>
		<layer id="221" name="947951_const" type="Const" version="opset1">
			<data element_type="f32" offset="1115860" shape="512,1,1,1" size="2048"/>
			<output>
				<port id="1" precision="FP32">
					<dim>512</dim>
					<dim>1</dim>
					<dim>1</dim>
					<dim>1</dim>
				</port>
			</output>
		</layer>
		<layer id="222" name="conv5_1/dw/fq_weights_1" type="FakeQuantize" version="opset1">
			<data levels="255"/>
			<input>
				<port id="0">
					<dim>512</dim>
					<dim>1</dim>
					<dim>3</dim>
					<dim>3</dim>
				</port>
				<port id="1">
					<dim>512</dim>
					<dim>1</dim>
					<dim>1</dim>
					<dim>1</dim>
				</port>
				<port id="2">
					<dim>512</dim>
					<dim>1</dim>
					<dim>1</dim>
					<dim>1</dim>
				</port>
				<port id="3">
					<dim>512</dim>
					<dim>1</dim>
					<dim>1</dim>
					<dim>1</dim>
				</port>
				<port id="4">
					<dim>512</dim>
					<dim>1</dim>
					<dim>1</dim>
					<dim>1</dim>
				</port>
			</input>
			<output>
				<port id="5" precision="FP32">
					<dim>512</dim>
					<dim>1</dim>
					<dim>3</dim>
					<dim>3</dim>
				</port>
			</output>
		</layer>
		<layer id="223" name="4048/value4050_const" type="Const" version="opset1">
			<data element_type="i64" offset="1117908" shape="5" size="40"/>
			<output>
				<port id="1" precision="I64">
					<dim>5</dim>
				</port>
			</output>
		</layer>
		<layer id="224" name="4048" type="Reshape" version="opset1">
			<data special_zero="True"/>
			<input>
				<port id="0">
					<dim>512</dim>
					<dim>1</dim>
					<dim>3</dim>
					<dim>3</dim>
				</port>
				<port id="1">
					<dim>5</dim>
				</port>
			</input>
			<output>
				<port id="2" precision="FP32">
					<dim>512</dim>
					<dim>1</dim>
					<dim>1</dim>
					<dim>3</dim>
					<dim>3</dim>
				</port>
			</output>
		</layer>
		<layer id="225" name="conv5_1/dw" type="GroupConvolution" version="opset1">
			<data dilations="2,2" output_padding="0,0" pads_begin="2,2" pads_end="2,2" strides="1,1"/>
			<input>
				<port id="0">
					<dim>1</dim>
					<dim>512</dim>
					<dim>32</dim>
					<dim>57</dim>
				</port>
				<port id="1">
					<dim>512</dim>
					<dim>1</dim>
					<dim>1</dim>
					<dim>3</dim>
					<dim>3</dim>
				</port>
			</input>
			<output>
				<port id="2" precision="FP32">
					<dim>1</dim>
					<dim>512</dim>
					<dim>32</dim>
					<dim>57</dim>
				</port>
			</output>
		</layer>
		<layer id="226" name="data_add_90329037/copy_const395_const" type="Const" version="opset1">
			<data element_type="f32" offset="1117948" shape="1,512,1,1" size="2048"/>
			<output>
				<port id="1" precision="FP32">
					<dim>1</dim>
					<dim>512</dim>
					<dim>1</dim>
					<dim>1</dim>
				</port>
			</output>
		</layer>
		<layer id="227" name="Add1_7968/Fused_Add_" type="Add" version="opset1">
			<input>
				<port id="0">
					<dim>1</dim>
					<dim>512</dim>
					<dim>32</dim>
					<dim>57</dim>
				</port>
				<port id="1">
					<dim>1</dim>
					<dim>512</dim>
					<dim>1</dim>
					<dim>1</dim>
				</port>
			</input>
			<output>
				<port id="2" precision="FP32">
					<dim>1</dim>
					<dim>512</dim>
					<dim>32</dim>
					<dim>57</dim>
				</port>
			</output>
		</layer>
		<layer id="228" name="relu5_1/dw" type="ReLU" version="opset1">
			<input>
				<port id="0">
					<dim>1</dim>
					<dim>512</dim>
					<dim>32</dim>
					<dim>57</dim>
				</port>
			</input>
			<output>
				<port id="1" precision="FP32">
					<dim>1</dim>
					<dim>512</dim>
					<dim>32</dim>
					<dim>57</dim>
				</port>
			</output>
		</layer>
		<layer id="229" name="20142018_const" type="Const" version="opset1">
			<data element_type="f32" offset="5952" shape="" size="4"/>
			<output>
				<port id="1" precision="FP32"/>
			</output>
		</layer>
		<layer id="230" name="20152019_const" type="Const" version="opset1">
			<data element_type="f32" offset="1119996" shape="" size="4"/>
			<output>
				<port id="1" precision="FP32"/>
			</output>
		</layer>
		<layer id="231" name="20162020_const" type="Const" version="opset1">
			<data element_type="f32" offset="5952" shape="" size="4"/>
			<output>
				<port id="1" precision="FP32"/>
			</output>
		</layer>
		<layer id="232" name="20172021_const" type="Const" version="opset1">
			<data element_type="f32" offset="1119996" shape="" size="4"/>
			<output>
				<port id="1" precision="FP32"/>
			</output>
		</layer>
		<layer id="233" name="conv5_1/sep/fq_input_0" type="FakeQuantize" version="opset1">
			<data levels="256"/>
			<input>
				<port id="0">
					<dim>1</dim>
					<dim>512</dim>
					<dim>32</dim>
					<dim>57</dim>
				</port>
				<port id="1"/>
				<port id="2"/>
				<port id="3"/>
				<port id="4"/>
			</input>
			<output>
				<port id="5" precision="FP32">
					<dim>1</dim>
					<dim>512</dim>
					<dim>32</dim>
					<dim>57</dim>
				</port>
			</output>
		</layer>
		<layer id="234" name="Mul1_7979/Fused_Mul_96349636_const398_const" type="Const" version="opset1">
			<data element_type="f32" offset="1120000" shape="512,512,1,1" size="1048576"/>
			<output>
				<port id="1" precision="FP32">
					<dim>512</dim>
					<dim>512</dim>
					<dim>1</dim>
					<dim>1</dim>
				</port>
			</output>
		</layer>
		<layer id="235" name="20242028_const" type="Const" version="opset1">
			<data element_type="f32" offset="2168576" shape="512,1,1,1" size="2048"/>
			<output>
				<port id="1" precision="FP32">
					<dim>512</dim>
					<dim>1</dim>
					<dim>1</dim>
					<dim>1</dim>
				</port>
			</output>
		</layer>
		<layer id="236" name="20252029_const" type="Const" version="opset1">
			<data element_type="f32" offset="2170624" shape="512,1,1,1" size="2048"/>
			<output>
				<port id="1" precision="FP32">
					<dim>512</dim>
					<dim>1</dim>
					<dim>1</dim>
					<dim>1</dim>
				</port>
			</output>
		</layer>
		<layer id="237" name="20262030_const" type="Const" version="opset1">
			<data element_type="f32" offset="2168576" shape="512,1,1,1" size="2048"/>
			<output>
				<port id="1" precision="FP32">
					<dim>512</dim>
					<dim>1</dim>
					<dim>1</dim>
					<dim>1</dim>
				</port>
			</output>
		</layer>
		<layer id="238" name="20272031_const" type="Const" version="opset1">
			<data element_type="f32" offset="2170624" shape="512,1,1,1" size="2048"/>
			<output>
				<port id="1" precision="FP32">
					<dim>512</dim>
					<dim>1</dim>
					<dim>1</dim>
					<dim>1</dim>
				</port>
			</output>
		</layer>
		<layer id="239" name="conv5_1/sep/fq_weights_1" type="FakeQuantize" version="opset1">
			<data levels="255"/>
			<input>
				<port id="0">
					<dim>512</dim>
					<dim>512</dim>
					<dim>1</dim>
					<dim>1</dim>
				</port>
				<port id="1">
					<dim>512</dim>
					<dim>1</dim>
					<dim>1</dim>
					<dim>1</dim>
				</port>
				<port id="2">
					<dim>512</dim>
					<dim>1</dim>
					<dim>1</dim>
					<dim>1</dim>
				</port>
				<port id="3">
					<dim>512</dim>
					<dim>1</dim>
					<dim>1</dim>
					<dim>1</dim>
				</port>
				<port id="4">
					<dim>512</dim>
					<dim>1</dim>
					<dim>1</dim>
					<dim>1</dim>
				</port>
			</input>
			<output>
				<port id="5" precision="FP32">
					<dim>512</dim>
					<dim>512</dim>
					<dim>1</dim>
					<dim>1</dim>
				</port>
			</output>
		</layer>
		<layer id="240" name="conv5_1/sep" type="Convolution" version="opset1">
			<data dilations="1,1" output_padding="0,0" pads_begin="0,0" pads_end="0,0" strides="1,1"/>
			<input>
				<port id="0">
					<dim>1</dim>
					<dim>512</dim>
					<dim>32</dim>
					<dim>57</dim>
				</port>
				<port id="1">
					<dim>512</dim>
					<dim>512</dim>
					<dim>1</dim>
					<dim>1</dim>
				</port>
			</input>
			<output>
				<port id="2" precision="FP32">
					<dim>1</dim>
					<dim>512</dim>
					<dim>32</dim>
					<dim>57</dim>
				</port>
			</output>
		</layer>
		<layer id="241" name="data_add_90409045/copy_const400_const" type="Const" version="opset1">
			<data element_type="f32" offset="2172672" shape="1,512,1,1" size="2048"/>
			<output>
				<port id="1" precision="FP32">
					<dim>1</dim>
					<dim>512</dim>
					<dim>1</dim>
					<dim>1</dim>
				</port>
			</output>
		</layer>
		<layer id="242" name="Add1_7980/Fused_Add_" type="Add" version="opset1">
			<input>
				<port id="0">
					<dim>1</dim>
					<dim>512</dim>
					<dim>32</dim>
					<dim>57</dim>
				</port>
				<port id="1">
					<dim>1</dim>
					<dim>512</dim>
					<dim>1</dim>
					<dim>1</dim>
				</port>
			</input>
			<output>
				<port id="2" precision="FP32">
					<dim>1</dim>
					<dim>512</dim>
					<dim>32</dim>
					<dim>57</dim>
				</port>
			</output>
		</layer>
		<layer id="243" name="relu5_1/sep" type="ReLU" version="opset1">
			<input>
				<port id="0">
					<dim>1</dim>
					<dim>512</dim>
					<dim>32</dim>
					<dim>57</dim>
				</port>
			</input>
			<output>
				<port id="1" precision="FP32">
					<dim>1</dim>
					<dim>512</dim>
					<dim>32</dim>
					<dim>57</dim>
				</port>
			</output>
		</layer>
		<layer id="244" name="20742078_const" type="Const" version="opset1">
			<data element_type="f32" offset="1091284" shape="1,512,1,1" size="2048"/>
			<output>
				<port id="1" precision="FP32">
					<dim>1</dim>
					<dim>512</dim>
					<dim>1</dim>
					<dim>1</dim>
				</port>
			</output>
		</layer>
		<layer id="245" name="20752079_const" type="Const" version="opset1">
			<data element_type="f32" offset="2174720" shape="1,512,1,1" size="2048"/>
			<output>
				<port id="1" precision="FP32">
					<dim>1</dim>
					<dim>512</dim>
					<dim>1</dim>
					<dim>1</dim>
				</port>
			</output>
		</layer>
		<layer id="246" name="20762080_const" type="Const" version="opset1">
			<data element_type="f32" offset="1091284" shape="1,512,1,1" size="2048"/>
			<output>
				<port id="1" precision="FP32">
					<dim>1</dim>
					<dim>512</dim>
					<dim>1</dim>
					<dim>1</dim>
				</port>
			</output>
		</layer>
		<layer id="247" name="20772081_const" type="Const" version="opset1">
			<data element_type="f32" offset="2174720" shape="1,512,1,1" size="2048"/>
			<output>
				<port id="1" precision="FP32">
					<dim>1</dim>
					<dim>512</dim>
					<dim>1</dim>
					<dim>1</dim>
				</port>
			</output>
		</layer>
		<layer id="248" name="conv5_2/dw/fq_input_0" type="FakeQuantize" version="opset1">
			<data levels="256"/>
			<input>
				<port id="0">
					<dim>1</dim>
					<dim>512</dim>
					<dim>32</dim>
					<dim>57</dim>
				</port>
				<port id="1">
					<dim>1</dim>
					<dim>512</dim>
					<dim>1</dim>
					<dim>1</dim>
				</port>
				<port id="2">
					<dim>1</dim>
					<dim>512</dim>
					<dim>1</dim>
					<dim>1</dim>
				</port>
				<port id="3">
					<dim>1</dim>
					<dim>512</dim>
					<dim>1</dim>
					<dim>1</dim>
				</port>
				<port id="4">
					<dim>1</dim>
					<dim>512</dim>
					<dim>1</dim>
					<dim>1</dim>
				</port>
			</input>
			<output>
				<port id="5" precision="FP32">
					<dim>1</dim>
					<dim>512</dim>
					<dim>32</dim>
					<dim>57</dim>
				</port>
			</output>
		</layer>
		<layer id="249" name="730629_const" type="Const" version="opset1">
			<data element_type="f32" offset="2176768" shape="512,1,3,3" size="18432"/>
			<output>
				<port id="1" precision="FP32">
					<dim>512</dim>
					<dim>1</dim>
					<dim>3</dim>
					<dim>3</dim>
				</port>
			</output>
		</layer>
		<layer id="250" name="20842088_const" type="Const" version="opset1">
			<data element_type="f32" offset="2195200" shape="512,1,1,1" size="2048"/>
			<output>
				<port id="1" precision="FP32">
					<dim>512</dim>
					<dim>1</dim>
					<dim>1</dim>
					<dim>1</dim>
				</port>
			</output>
		</layer>
		<layer id="251" name="20852089_const" type="Const" version="opset1">
			<data element_type="f32" offset="2197248" shape="512,1,1,1" size="2048"/>
			<output>
				<port id="1" precision="FP32">
					<dim>512</dim>
					<dim>1</dim>
					<dim>1</dim>
					<dim>1</dim>
				</port>
			</output>
		</layer>
		<layer id="252" name="20862090_const" type="Const" version="opset1">
			<data element_type="f32" offset="2195200" shape="512,1,1,1" size="2048"/>
			<output>
				<port id="1" precision="FP32">
					<dim>512</dim>
					<dim>1</dim>
					<dim>1</dim>
					<dim>1</dim>
				</port>
			</output>
		</layer>
		<layer id="253" name="20872091_const" type="Const" version="opset1">
			<data element_type="f32" offset="2197248" shape="512,1,1,1" size="2048"/>
			<output>
				<port id="1" precision="FP32">
					<dim>512</dim>
					<dim>1</dim>
					<dim>1</dim>
					<dim>1</dim>
				</port>
			</output>
		</layer>
		<layer id="254" name="conv5_2/dw/fq_weights_1" type="FakeQuantize" version="opset1">
			<data levels="255"/>
			<input>
				<port id="0">
					<dim>512</dim>
					<dim>1</dim>
					<dim>3</dim>
					<dim>3</dim>
				</port>
				<port id="1">
					<dim>512</dim>
					<dim>1</dim>
					<dim>1</dim>
					<dim>1</dim>
				</port>
				<port id="2">
					<dim>512</dim>
					<dim>1</dim>
					<dim>1</dim>
					<dim>1</dim>
				</port>
				<port id="3">
					<dim>512</dim>
					<dim>1</dim>
					<dim>1</dim>
					<dim>1</dim>
				</port>
				<port id="4">
					<dim>512</dim>
					<dim>1</dim>
					<dim>1</dim>
					<dim>1</dim>
				</port>
			</input>
			<output>
				<port id="5" precision="FP32">
					<dim>512</dim>
					<dim>1</dim>
					<dim>3</dim>
					<dim>3</dim>
				</port>
			</output>
		</layer>
		<layer id="255" name="4096/value4098_const" type="Const" version="opset1">
			<data element_type="i64" offset="1117908" shape="5" size="40"/>
			<output>
				<port id="1" precision="I64">
					<dim>5</dim>
				</port>
			</output>
		</layer>
		<layer id="256" name="4096" type="Reshape" version="opset1">
			<data special_zero="True"/>
			<input>
				<port id="0">
					<dim>512</dim>
					<dim>1</dim>
					<dim>3</dim>
					<dim>3</dim>
				</port>
				<port id="1">
					<dim>5</dim>
				</port>
			</input>
			<output>
				<port id="2" precision="FP32">
					<dim>512</dim>
					<dim>1</dim>
					<dim>1</dim>
					<dim>3</dim>
					<dim>3</dim>
				</port>
			</output>
		</layer>
		<layer id="257" name="conv5_2/dw" type="GroupConvolution" version="opset1">
			<data dilations="1,1" output_padding="0,0" pads_begin="1,1" pads_end="1,1" strides="1,1"/>
			<input>
				<port id="0">
					<dim>1</dim>
					<dim>512</dim>
					<dim>32</dim>
					<dim>57</dim>
				</port>
				<port id="1">
					<dim>512</dim>
					<dim>1</dim>
					<dim>1</dim>
					<dim>3</dim>
					<dim>3</dim>
				</port>
			</input>
			<output>
				<port id="2" precision="FP32">
					<dim>1</dim>
					<dim>512</dim>
					<dim>32</dim>
					<dim>57</dim>
				</port>
			</output>
		</layer>
		<layer id="258" name="data_add_90489053/copy_const405_const" type="Const" version="opset1">
			<data element_type="f32" offset="2199296" shape="1,512,1,1" size="2048"/>
			<output>
				<port id="1" precision="FP32">
					<dim>1</dim>
					<dim>512</dim>
					<dim>1</dim>
					<dim>1</dim>
				</port>
			</output>
		</layer>
		<layer id="259" name="Add1_7992/Fused_Add_" type="Add" version="opset1">
			<input>
				<port id="0">
					<dim>1</dim>
					<dim>512</dim>
					<dim>32</dim>
					<dim>57</dim>
				</port>
				<port id="1">
					<dim>1</dim>
					<dim>512</dim>
					<dim>1</dim>
					<dim>1</dim>
				</port>
			</input>
			<output>
				<port id="2" precision="FP32">
					<dim>1</dim>
					<dim>512</dim>
					<dim>32</dim>
					<dim>57</dim>
				</port>
			</output>
		</layer>
		<layer id="260" name="relu5_2/dw" type="ReLU" version="opset1">
			<input>
				<port id="0">
					<dim>1</dim>
					<dim>512</dim>
					<dim>32</dim>
					<dim>57</dim>
				</port>
			</input>
			<output>
				<port id="1" precision="FP32">
					<dim>1</dim>
					<dim>512</dim>
					<dim>32</dim>
					<dim>57</dim>
				</port>
			</output>
		</layer>
		<layer id="261" name="11341138_const" type="Const" version="opset1">
			<data element_type="f32" offset="5952" shape="" size="4"/>
			<output>
				<port id="1" precision="FP32"/>
			</output>
		</layer>
		<layer id="262" name="11351139_const" type="Const" version="opset1">
			<data element_type="f32" offset="2201344" shape="" size="4"/>
			<output>
				<port id="1" precision="FP32"/>
			</output>
		</layer>
		<layer id="263" name="11361140_const" type="Const" version="opset1">
			<data element_type="f32" offset="5952" shape="" size="4"/>
			<output>
				<port id="1" precision="FP32"/>
			</output>
		</layer>
		<layer id="264" name="11371141_const" type="Const" version="opset1">
			<data element_type="f32" offset="2201344" shape="" size="4"/>
			<output>
				<port id="1" precision="FP32"/>
			</output>
		</layer>
		<layer id="265" name="conv5_2/sep/fq_input_0" type="FakeQuantize" version="opset1">
			<data levels="256"/>
			<input>
				<port id="0">
					<dim>1</dim>
					<dim>512</dim>
					<dim>32</dim>
					<dim>57</dim>
				</port>
				<port id="1"/>
				<port id="2"/>
				<port id="3"/>
				<port id="4"/>
			</input>
			<output>
				<port id="5" precision="FP32">
					<dim>1</dim>
					<dim>512</dim>
					<dim>32</dim>
					<dim>57</dim>
				</port>
			</output>
		</layer>
		<layer id="266" name="Mul1_8003/Fused_Mul_96429644_const408_const" type="Const" version="opset1">
			<data element_type="f32" offset="2201348" shape="512,512,1,1" size="1048576"/>
			<output>
				<port id="1" precision="FP32">
					<dim>512</dim>
					<dim>512</dim>
					<dim>1</dim>
					<dim>1</dim>
				</port>
			</output>
		</layer>
		<layer id="267" name="11441148_const" type="Const" version="opset1">
			<data element_type="f32" offset="3249924" shape="512,1,1,1" size="2048"/>
			<output>
				<port id="1" precision="FP32">
					<dim>512</dim>
					<dim>1</dim>
					<dim>1</dim>
					<dim>1</dim>
				</port>
			</output>
		</layer>
		<layer id="268" name="11451149_const" type="Const" version="opset1">
			<data element_type="f32" offset="3251972" shape="512,1,1,1" size="2048"/>
			<output>
				<port id="1" precision="FP32">
					<dim>512</dim>
					<dim>1</dim>
					<dim>1</dim>
					<dim>1</dim>
				</port>
			</output>
		</layer>
		<layer id="269" name="11461150_const" type="Const" version="opset1">
			<data element_type="f32" offset="3249924" shape="512,1,1,1" size="2048"/>
			<output>
				<port id="1" precision="FP32">
					<dim>512</dim>
					<dim>1</dim>
					<dim>1</dim>
					<dim>1</dim>
				</port>
			</output>
		</layer>
		<layer id="270" name="11471151_const" type="Const" version="opset1">
			<data element_type="f32" offset="3251972" shape="512,1,1,1" size="2048"/>
			<output>
				<port id="1" precision="FP32">
					<dim>512</dim>
					<dim>1</dim>
					<dim>1</dim>
					<dim>1</dim>
				</port>
			</output>
		</layer>
		<layer id="271" name="conv5_2/sep/fq_weights_1" type="FakeQuantize" version="opset1">
			<data levels="255"/>
			<input>
				<port id="0">
					<dim>512</dim>
					<dim>512</dim>
					<dim>1</dim>
					<dim>1</dim>
				</port>
				<port id="1">
					<dim>512</dim>
					<dim>1</dim>
					<dim>1</dim>
					<dim>1</dim>
				</port>
				<port id="2">
					<dim>512</dim>
					<dim>1</dim>
					<dim>1</dim>
					<dim>1</dim>
				</port>
				<port id="3">
					<dim>512</dim>
					<dim>1</dim>
					<dim>1</dim>
					<dim>1</dim>
				</port>
				<port id="4">
					<dim>512</dim>
					<dim>1</dim>
					<dim>1</dim>
					<dim>1</dim>
				</port>
			</input>
			<output>
				<port id="5" precision="FP32">
					<dim>512</dim>
					<dim>512</dim>
					<dim>1</dim>
					<dim>1</dim>
				</port>
			</output>
		</layer>
		<layer id="272" name="conv5_2/sep" type="Convolution" version="opset1">
			<data dilations="1,1" output_padding="0,0" pads_begin="0,0" pads_end="0,0" strides="1,1"/>
			<input>
				<port id="0">
					<dim>1</dim>
					<dim>512</dim>
					<dim>32</dim>
					<dim>57</dim>
				</port>
				<port id="1">
					<dim>512</dim>
					<dim>512</dim>
					<dim>1</dim>
					<dim>1</dim>
				</port>
			</input>
			<output>
				<port id="2" precision="FP32">
					<dim>1</dim>
					<dim>512</dim>
					<dim>32</dim>
					<dim>57</dim>
				</port>
			</output>
		</layer>
		<layer id="273" name="data_add_90569061/copy_const410_const" type="Const" version="opset1">
			<data element_type="f32" offset="3254020" shape="1,512,1,1" size="2048"/>
			<output>
				<port id="1" precision="FP32">
					<dim>1</dim>
					<dim>512</dim>
					<dim>1</dim>
					<dim>1</dim>
				</port>
			</output>
		</layer>
		<layer id="274" name="Add1_8004/Fused_Add_" type="Add" version="opset1">
			<input>
				<port id="0">
					<dim>1</dim>
					<dim>512</dim>
					<dim>32</dim>
					<dim>57</dim>
				</port>
				<port id="1">
					<dim>1</dim>
					<dim>512</dim>
					<dim>1</dim>
					<dim>1</dim>
				</port>
			</input>
			<output>
				<port id="2" precision="FP32">
					<dim>1</dim>
					<dim>512</dim>
					<dim>32</dim>
					<dim>57</dim>
				</port>
			</output>
		</layer>
		<layer id="275" name="relu5_2/sep" type="ReLU" version="opset1">
			<input>
				<port id="0">
					<dim>1</dim>
					<dim>512</dim>
					<dim>32</dim>
					<dim>57</dim>
				</port>
			</input>
			<output>
				<port id="1" precision="FP32">
					<dim>1</dim>
					<dim>512</dim>
					<dim>32</dim>
					<dim>57</dim>
				</port>
			</output>
		</layer>
		<layer id="276" name="10741078_const" type="Const" version="opset1">
			<data element_type="f32" offset="1091284" shape="1,512,1,1" size="2048"/>
			<output>
				<port id="1" precision="FP32">
					<dim>1</dim>
					<dim>512</dim>
					<dim>1</dim>
					<dim>1</dim>
				</port>
			</output>
		</layer>
		<layer id="277" name="10751079_const" type="Const" version="opset1">
			<data element_type="f32" offset="3256068" shape="1,512,1,1" size="2048"/>
			<output>
				<port id="1" precision="FP32">
					<dim>1</dim>
					<dim>512</dim>
					<dim>1</dim>
					<dim>1</dim>
				</port>
			</output>
		</layer>
		<layer id="278" name="10761080_const" type="Const" version="opset1">
			<data element_type="f32" offset="1091284" shape="1,512,1,1" size="2048"/>
			<output>
				<port id="1" precision="FP32">
					<dim>1</dim>
					<dim>512</dim>
					<dim>1</dim>
					<dim>1</dim>
				</port>
			</output>
		</layer>
		<layer id="279" name="10771081_const" type="Const" version="opset1">
			<data element_type="f32" offset="3256068" shape="1,512,1,1" size="2048"/>
			<output>
				<port id="1" precision="FP32">
					<dim>1</dim>
					<dim>512</dim>
					<dim>1</dim>
					<dim>1</dim>
				</port>
			</output>
		</layer>
		<layer id="280" name="conv5_3/dw/fq_input_0" type="FakeQuantize" version="opset1">
			<data levels="256"/>
			<input>
				<port id="0">
					<dim>1</dim>
					<dim>512</dim>
					<dim>32</dim>
					<dim>57</dim>
				</port>
				<port id="1">
					<dim>1</dim>
					<dim>512</dim>
					<dim>1</dim>
					<dim>1</dim>
				</port>
				<port id="2">
					<dim>1</dim>
					<dim>512</dim>
					<dim>1</dim>
					<dim>1</dim>
				</port>
				<port id="3">
					<dim>1</dim>
					<dim>512</dim>
					<dim>1</dim>
					<dim>1</dim>
				</port>
				<port id="4">
					<dim>1</dim>
					<dim>512</dim>
					<dim>1</dim>
					<dim>1</dim>
				</port>
			</input>
			<output>
				<port id="5" precision="FP32">
					<dim>1</dim>
					<dim>512</dim>
					<dim>32</dim>
					<dim>57</dim>
				</port>
			</output>
		</layer>
		<layer id="281" name="734631_const" type="Const" version="opset1">
			<data element_type="f32" offset="3258116" shape="512,1,3,3" size="18432"/>
			<output>
				<port id="1" precision="FP32">
					<dim>512</dim>
					<dim>1</dim>
					<dim>3</dim>
					<dim>3</dim>
				</port>
			</output>
		</layer>
		<layer id="282" name="10841088_const" type="Const" version="opset1">
			<data element_type="f32" offset="3276548" shape="512,1,1,1" size="2048"/>
			<output>
				<port id="1" precision="FP32">
					<dim>512</dim>
					<dim>1</dim>
					<dim>1</dim>
					<dim>1</dim>
				</port>
			</output>
		</layer>
		<layer id="283" name="10851089_const" type="Const" version="opset1">
			<data element_type="f32" offset="3278596" shape="512,1,1,1" size="2048"/>
			<output>
				<port id="1" precision="FP32">
					<dim>512</dim>
					<dim>1</dim>
					<dim>1</dim>
					<dim>1</dim>
				</port>
			</output>
		</layer>
		<layer id="284" name="10861090_const" type="Const" version="opset1">
			<data element_type="f32" offset="3276548" shape="512,1,1,1" size="2048"/>
			<output>
				<port id="1" precision="FP32">
					<dim>512</dim>
					<dim>1</dim>
					<dim>1</dim>
					<dim>1</dim>
				</port>
			</output>
		</layer>
		<layer id="285" name="10871091_const" type="Const" version="opset1">
			<data element_type="f32" offset="3278596" shape="512,1,1,1" size="2048"/>
			<output>
				<port id="1" precision="FP32">
					<dim>512</dim>
					<dim>1</dim>
					<dim>1</dim>
					<dim>1</dim>
				</port>
			</output>
		</layer>
		<layer id="286" name="conv5_3/dw/fq_weights_1" type="FakeQuantize" version="opset1">
			<data levels="255"/>
			<input>
				<port id="0">
					<dim>512</dim>
					<dim>1</dim>
					<dim>3</dim>
					<dim>3</dim>
				</port>
				<port id="1">
					<dim>512</dim>
					<dim>1</dim>
					<dim>1</dim>
					<dim>1</dim>
				</port>
				<port id="2">
					<dim>512</dim>
					<dim>1</dim>
					<dim>1</dim>
					<dim>1</dim>
				</port>
				<port id="3">
					<dim>512</dim>
					<dim>1</dim>
					<dim>1</dim>
					<dim>1</dim>
				</port>
				<port id="4">
					<dim>512</dim>
					<dim>1</dim>
					<dim>1</dim>
					<dim>1</dim>
				</port>
			</input>
			<output>
				<port id="5" precision="FP32">
					<dim>512</dim>
					<dim>1</dim>
					<dim>3</dim>
					<dim>3</dim>
				</port>
			</output>
		</layer>
		<layer id="287" name="4080/value4082_const" type="Const" version="opset1">
			<data element_type="i64" offset="1117908" shape="5" size="40"/>
			<output>
				<port id="1" precision="I64">
					<dim>5</dim>
				</port>
			</output>
		</layer>
		<layer id="288" name="4080" type="Reshape" version="opset1">
			<data special_zero="True"/>
			<input>
				<port id="0">
					<dim>512</dim>
					<dim>1</dim>
					<dim>3</dim>
					<dim>3</dim>
				</port>
				<port id="1">
					<dim>5</dim>
				</port>
			</input>
			<output>
				<port id="2" precision="FP32">
					<dim>512</dim>
					<dim>1</dim>
					<dim>1</dim>
					<dim>3</dim>
					<dim>3</dim>
				</port>
			</output>
		</layer>
		<layer id="289" name="conv5_3/dw" type="GroupConvolution" version="opset1">
			<data dilations="1,1" output_padding="0,0" pads_begin="1,1" pads_end="1,1" strides="1,1"/>
			<input>
				<port id="0">
					<dim>1</dim>
					<dim>512</dim>
					<dim>32</dim>
					<dim>57</dim>
				</port>
				<port id="1">
					<dim>512</dim>
					<dim>1</dim>
					<dim>1</dim>
					<dim>3</dim>
					<dim>3</dim>
				</port>
			</input>
			<output>
				<port id="2" precision="FP32">
					<dim>1</dim>
					<dim>512</dim>
					<dim>32</dim>
					<dim>57</dim>
				</port>
			</output>
		</layer>
		<layer id="290" name="data_add_90649069/copy_const415_const" type="Const" version="opset1">
			<data element_type="f32" offset="3280644" shape="1,512,1,1" size="2048"/>
			<output>
				<port id="1" precision="FP32">
					<dim>1</dim>
					<dim>512</dim>
					<dim>1</dim>
					<dim>1</dim>
				</port>
			</output>
		</layer>
		<layer id="291" name="Add1_8016/Fused_Add_" type="Add" version="opset1">
			<input>
				<port id="0">
					<dim>1</dim>
					<dim>512</dim>
					<dim>32</dim>
					<dim>57</dim>
				</port>
				<port id="1">
					<dim>1</dim>
					<dim>512</dim>
					<dim>1</dim>
					<dim>1</dim>
				</port>
			</input>
			<output>
				<port id="2" precision="FP32">
					<dim>1</dim>
					<dim>512</dim>
					<dim>32</dim>
					<dim>57</dim>
				</port>
			</output>
		</layer>
		<layer id="292" name="relu5_3/dw" type="ReLU" version="opset1">
			<input>
				<port id="0">
					<dim>1</dim>
					<dim>512</dim>
					<dim>32</dim>
					<dim>57</dim>
				</port>
			</input>
			<output>
				<port id="1" precision="FP32">
					<dim>1</dim>
					<dim>512</dim>
					<dim>32</dim>
					<dim>57</dim>
				</port>
			</output>
		</layer>
		<layer id="293" name="19541958_const" type="Const" version="opset1">
			<data element_type="f32" offset="5952" shape="" size="4"/>
			<output>
				<port id="1" precision="FP32"/>
			</output>
		</layer>
		<layer id="294" name="19551959_const" type="Const" version="opset1">
			<data element_type="f32" offset="3282692" shape="" size="4"/>
			<output>
				<port id="1" precision="FP32"/>
			</output>
		</layer>
		<layer id="295" name="19561960_const" type="Const" version="opset1">
			<data element_type="f32" offset="5952" shape="" size="4"/>
			<output>
				<port id="1" precision="FP32"/>
			</output>
		</layer>
		<layer id="296" name="19571961_const" type="Const" version="opset1">
			<data element_type="f32" offset="3282692" shape="" size="4"/>
			<output>
				<port id="1" precision="FP32"/>
			</output>
		</layer>
		<layer id="297" name="conv5_3/sep/fq_input_0" type="FakeQuantize" version="opset1">
			<data levels="256"/>
			<input>
				<port id="0">
					<dim>1</dim>
					<dim>512</dim>
					<dim>32</dim>
					<dim>57</dim>
				</port>
				<port id="1"/>
				<port id="2"/>
				<port id="3"/>
				<port id="4"/>
			</input>
			<output>
				<port id="5" precision="FP32">
					<dim>1</dim>
					<dim>512</dim>
					<dim>32</dim>
					<dim>57</dim>
				</port>
			</output>
		</layer>
		<layer id="298" name="Mul1_8027/Fused_Mul_96509652_const418_const" type="Const" version="opset1">
			<data element_type="f32" offset="3282696" shape="512,512,1,1" size="1048576"/>
			<output>
				<port id="1" precision="FP32">
					<dim>512</dim>
					<dim>512</dim>
					<dim>1</dim>
					<dim>1</dim>
				</port>
			</output>
		</layer>
		<layer id="299" name="19641968_const" type="Const" version="opset1">
			<data element_type="f32" offset="4331272" shape="512,1,1,1" size="2048"/>
			<output>
				<port id="1" precision="FP32">
					<dim>512</dim>
					<dim>1</dim>
					<dim>1</dim>
					<dim>1</dim>
				</port>
			</output>
		</layer>
		<layer id="300" name="19651969_const" type="Const" version="opset1">
			<data element_type="f32" offset="4333320" shape="512,1,1,1" size="2048"/>
			<output>
				<port id="1" precision="FP32">
					<dim>512</dim>
					<dim>1</dim>
					<dim>1</dim>
					<dim>1</dim>
				</port>
			</output>
		</layer>
		<layer id="301" name="19661970_const" type="Const" version="opset1">
			<data element_type="f32" offset="4331272" shape="512,1,1,1" size="2048"/>
			<output>
				<port id="1" precision="FP32">
					<dim>512</dim>
					<dim>1</dim>
					<dim>1</dim>
					<dim>1</dim>
				</port>
			</output>
		</layer>
		<layer id="302" name="19671971_const" type="Const" version="opset1">
			<data element_type="f32" offset="4333320" shape="512,1,1,1" size="2048"/>
			<output>
				<port id="1" precision="FP32">
					<dim>512</dim>
					<dim>1</dim>
					<dim>1</dim>
					<dim>1</dim>
				</port>
			</output>
		</layer>
		<layer id="303" name="conv5_3/sep/fq_weights_1" type="FakeQuantize" version="opset1">
			<data levels="255"/>
			<input>
				<port id="0">
					<dim>512</dim>
					<dim>512</dim>
					<dim>1</dim>
					<dim>1</dim>
				</port>
				<port id="1">
					<dim>512</dim>
					<dim>1</dim>
					<dim>1</dim>
					<dim>1</dim>
				</port>
				<port id="2">
					<dim>512</dim>
					<dim>1</dim>
					<dim>1</dim>
					<dim>1</dim>
				</port>
				<port id="3">
					<dim>512</dim>
					<dim>1</dim>
					<dim>1</dim>
					<dim>1</dim>
				</port>
				<port id="4">
					<dim>512</dim>
					<dim>1</dim>
					<dim>1</dim>
					<dim>1</dim>
				</port>
			</input>
			<output>
				<port id="5" precision="FP32">
					<dim>512</dim>
					<dim>512</dim>
					<dim>1</dim>
					<dim>1</dim>
				</port>
			</output>
		</layer>
		<layer id="304" name="conv5_3/sep" type="Convolution" version="opset1">
			<data dilations="1,1" output_padding="0,0" pads_begin="0,0" pads_end="0,0" strides="1,1"/>
			<input>
				<port id="0">
					<dim>1</dim>
					<dim>512</dim>
					<dim>32</dim>
					<dim>57</dim>
				</port>
				<port id="1">
					<dim>512</dim>
					<dim>512</dim>
					<dim>1</dim>
					<dim>1</dim>
				</port>
			</input>
			<output>
				<port id="2" precision="FP32">
					<dim>1</dim>
					<dim>512</dim>
					<dim>32</dim>
					<dim>57</dim>
				</port>
			</output>
		</layer>
		<layer id="305" name="data_add_90729077/copy_const420_const" type="Const" version="opset1">
			<data element_type="f32" offset="4335368" shape="1,512,1,1" size="2048"/>
			<output>
				<port id="1" precision="FP32">
					<dim>1</dim>
					<dim>512</dim>
					<dim>1</dim>
					<dim>1</dim>
				</port>
			</output>
		</layer>
		<layer id="306" name="Add1_8028/Fused_Add_" type="Add" version="opset1">
			<input>
				<port id="0">
					<dim>1</dim>
					<dim>512</dim>
					<dim>32</dim>
					<dim>57</dim>
				</port>
				<port id="1">
					<dim>1</dim>
					<dim>512</dim>
					<dim>1</dim>
					<dim>1</dim>
				</port>
			</input>
			<output>
				<port id="2" precision="FP32">
					<dim>1</dim>
					<dim>512</dim>
					<dim>32</dim>
					<dim>57</dim>
				</port>
			</output>
		</layer>
		<layer id="307" name="relu5_3/sep" type="ReLU" version="opset1">
			<input>
				<port id="0">
					<dim>1</dim>
					<dim>512</dim>
					<dim>32</dim>
					<dim>57</dim>
				</port>
			</input>
			<output>
				<port id="1" precision="FP32">
					<dim>1</dim>
					<dim>512</dim>
					<dim>32</dim>
					<dim>57</dim>
				</port>
			</output>
		</layer>
		<layer id="308" name="13141318_const" type="Const" version="opset1">
			<data element_type="f32" offset="1091284" shape="1,512,1,1" size="2048"/>
			<output>
				<port id="1" precision="FP32">
					<dim>1</dim>
					<dim>512</dim>
					<dim>1</dim>
					<dim>1</dim>
				</port>
			</output>
		</layer>
		<layer id="309" name="13151319_const" type="Const" version="opset1">
			<data element_type="f32" offset="4337416" shape="1,512,1,1" size="2048"/>
			<output>
				<port id="1" precision="FP32">
					<dim>1</dim>
					<dim>512</dim>
					<dim>1</dim>
					<dim>1</dim>
				</port>
			</output>
		</layer>
		<layer id="310" name="13161320_const" type="Const" version="opset1">
			<data element_type="f32" offset="1091284" shape="1,512,1,1" size="2048"/>
			<output>
				<port id="1" precision="FP32">
					<dim>1</dim>
					<dim>512</dim>
					<dim>1</dim>
					<dim>1</dim>
				</port>
			</output>
		</layer>
		<layer id="311" name="13171321_const" type="Const" version="opset1">
			<data element_type="f32" offset="4337416" shape="1,512,1,1" size="2048"/>
			<output>
				<port id="1" precision="FP32">
					<dim>1</dim>
					<dim>512</dim>
					<dim>1</dim>
					<dim>1</dim>
				</port>
			</output>
		</layer>
		<layer id="312" name="conv5_4/dw/fq_input_0" type="FakeQuantize" version="opset1">
			<data levels="256"/>
			<input>
				<port id="0">
					<dim>1</dim>
					<dim>512</dim>
					<dim>32</dim>
					<dim>57</dim>
				</port>
				<port id="1">
					<dim>1</dim>
					<dim>512</dim>
					<dim>1</dim>
					<dim>1</dim>
				</port>
				<port id="2">
					<dim>1</dim>
					<dim>512</dim>
					<dim>1</dim>
					<dim>1</dim>
				</port>
				<port id="3">
					<dim>1</dim>
					<dim>512</dim>
					<dim>1</dim>
					<dim>1</dim>
				</port>
				<port id="4">
					<dim>1</dim>
					<dim>512</dim>
					<dim>1</dim>
					<dim>1</dim>
				</port>
			</input>
			<output>
				<port id="5" precision="FP32">
					<dim>1</dim>
					<dim>512</dim>
					<dim>32</dim>
					<dim>57</dim>
				</port>
			</output>
		</layer>
		<layer id="313" name="738633_const" type="Const" version="opset1">
			<data element_type="f32" offset="4339464" shape="512,1,3,3" size="18432"/>
			<output>
				<port id="1" precision="FP32">
					<dim>512</dim>
					<dim>1</dim>
					<dim>3</dim>
					<dim>3</dim>
				</port>
			</output>
		</layer>
		<layer id="314" name="13241328_const" type="Const" version="opset1">
			<data element_type="f32" offset="4357896" shape="512,1,1,1" size="2048"/>
			<output>
				<port id="1" precision="FP32">
					<dim>512</dim>
					<dim>1</dim>
					<dim>1</dim>
					<dim>1</dim>
				</port>
			</output>
		</layer>
		<layer id="315" name="13251329_const" type="Const" version="opset1">
			<data element_type="f32" offset="4359944" shape="512,1,1,1" size="2048"/>
			<output>
				<port id="1" precision="FP32">
					<dim>512</dim>
					<dim>1</dim>
					<dim>1</dim>
					<dim>1</dim>
				</port>
			</output>
		</layer>
		<layer id="316" name="13261330_const" type="Const" version="opset1">
			<data element_type="f32" offset="4357896" shape="512,1,1,1" size="2048"/>
			<output>
				<port id="1" precision="FP32">
					<dim>512</dim>
					<dim>1</dim>
					<dim>1</dim>
					<dim>1</dim>
				</port>
			</output>
		</layer>
		<layer id="317" name="13271331_const" type="Const" version="opset1">
			<data element_type="f32" offset="4359944" shape="512,1,1,1" size="2048"/>
			<output>
				<port id="1" precision="FP32">
					<dim>512</dim>
					<dim>1</dim>
					<dim>1</dim>
					<dim>1</dim>
				</port>
			</output>
		</layer>
		<layer id="318" name="conv5_4/dw/fq_weights_1" type="FakeQuantize" version="opset1">
			<data levels="255"/>
			<input>
				<port id="0">
					<dim>512</dim>
					<dim>1</dim>
					<dim>3</dim>
					<dim>3</dim>
				</port>
				<port id="1">
					<dim>512</dim>
					<dim>1</dim>
					<dim>1</dim>
					<dim>1</dim>
				</port>
				<port id="2">
					<dim>512</dim>
					<dim>1</dim>
					<dim>1</dim>
					<dim>1</dim>
				</port>
				<port id="3">
					<dim>512</dim>
					<dim>1</dim>
					<dim>1</dim>
					<dim>1</dim>
				</port>
				<port id="4">
					<dim>512</dim>
					<dim>1</dim>
					<dim>1</dim>
					<dim>1</dim>
				</port>
			</input>
			<output>
				<port id="5" precision="FP32">
					<dim>512</dim>
					<dim>1</dim>
					<dim>3</dim>
					<dim>3</dim>
				</port>
			</output>
		</layer>
		<layer id="319" name="4084/value4086_const" type="Const" version="opset1">
			<data element_type="i64" offset="1117908" shape="5" size="40"/>
			<output>
				<port id="1" precision="I64">
					<dim>5</dim>
				</port>
			</output>
		</layer>
		<layer id="320" name="4084" type="Reshape" version="opset1">
			<data special_zero="True"/>
			<input>
				<port id="0">
					<dim>512</dim>
					<dim>1</dim>
					<dim>3</dim>
					<dim>3</dim>
				</port>
				<port id="1">
					<dim>5</dim>
				</port>
			</input>
			<output>
				<port id="2" precision="FP32">
					<dim>512</dim>
					<dim>1</dim>
					<dim>1</dim>
					<dim>3</dim>
					<dim>3</dim>
				</port>
			</output>
		</layer>
		<layer id="321" name="conv5_4/dw" type="GroupConvolution" version="opset1">
			<data dilations="1,1" output_padding="0,0" pads_begin="1,1" pads_end="1,1" strides="1,1"/>
			<input>
				<port id="0">
					<dim>1</dim>
					<dim>512</dim>
					<dim>32</dim>
					<dim>57</dim>
				</port>
				<port id="1">
					<dim>512</dim>
					<dim>1</dim>
					<dim>1</dim>
					<dim>3</dim>
					<dim>3</dim>
				</port>
			</input>
			<output>
				<port id="2" precision="FP32">
					<dim>1</dim>
					<dim>512</dim>
					<dim>32</dim>
					<dim>57</dim>
				</port>
			</output>
		</layer>
		<layer id="322" name="data_add_90809085/copy_const425_const" type="Const" version="opset1">
			<data element_type="f32" offset="4361992" shape="1,512,1,1" size="2048"/>
			<output>
				<port id="1" precision="FP32">
					<dim>1</dim>
					<dim>512</dim>
					<dim>1</dim>
					<dim>1</dim>
				</port>
			</output>
		</layer>
		<layer id="323" name="Add1_8040/Fused_Add_" type="Add" version="opset1">
			<input>
				<port id="0">
					<dim>1</dim>
					<dim>512</dim>
					<dim>32</dim>
					<dim>57</dim>
				</port>
				<port id="1">
					<dim>1</dim>
					<dim>512</dim>
					<dim>1</dim>
					<dim>1</dim>
				</port>
			</input>
			<output>
				<port id="2" precision="FP32">
					<dim>1</dim>
					<dim>512</dim>
					<dim>32</dim>
					<dim>57</dim>
				</port>
			</output>
		</layer>
		<layer id="324" name="relu5_4/dw" type="ReLU" version="opset1">
			<input>
				<port id="0">
					<dim>1</dim>
					<dim>512</dim>
					<dim>32</dim>
					<dim>57</dim>
				</port>
			</input>
			<output>
				<port id="1" precision="FP32">
					<dim>1</dim>
					<dim>512</dim>
					<dim>32</dim>
					<dim>57</dim>
				</port>
			</output>
		</layer>
		<layer id="325" name="16341638_const" type="Const" version="opset1">
			<data element_type="f32" offset="5952" shape="" size="4"/>
			<output>
				<port id="1" precision="FP32"/>
			</output>
		</layer>
		<layer id="326" name="16351639_const" type="Const" version="opset1">
			<data element_type="f32" offset="4364040" shape="" size="4"/>
			<output>
				<port id="1" precision="FP32"/>
			</output>
		</layer>
		<layer id="327" name="16361640_const" type="Const" version="opset1">
			<data element_type="f32" offset="5952" shape="" size="4"/>
			<output>
				<port id="1" precision="FP32"/>
			</output>
		</layer>
		<layer id="328" name="16371641_const" type="Const" version="opset1">
			<data element_type="f32" offset="4364040" shape="" size="4"/>
			<output>
				<port id="1" precision="FP32"/>
			</output>
		</layer>
		<layer id="329" name="conv5_4/sep/fq_input_0" type="FakeQuantize" version="opset1">
			<data levels="256"/>
			<input>
				<port id="0">
					<dim>1</dim>
					<dim>512</dim>
					<dim>32</dim>
					<dim>57</dim>
				</port>
				<port id="1"/>
				<port id="2"/>
				<port id="3"/>
				<port id="4"/>
			</input>
			<output>
				<port id="5" precision="FP32">
					<dim>1</dim>
					<dim>512</dim>
					<dim>32</dim>
					<dim>57</dim>
				</port>
			</output>
		</layer>
		<layer id="330" name="Mul1_8051/Fused_Mul_96589660_const428_const" type="Const" version="opset1">
			<data element_type="f32" offset="4364044" shape="512,512,1,1" size="1048576"/>
			<output>
				<port id="1" precision="FP32">
					<dim>512</dim>
					<dim>512</dim>
					<dim>1</dim>
					<dim>1</dim>
				</port>
			</output>
		</layer>
		<layer id="331" name="16441648_const" type="Const" version="opset1">
			<data element_type="f32" offset="5412620" shape="512,1,1,1" size="2048"/>
			<output>
				<port id="1" precision="FP32">
					<dim>512</dim>
					<dim>1</dim>
					<dim>1</dim>
					<dim>1</dim>
				</port>
			</output>
		</layer>
		<layer id="332" name="16451649_const" type="Const" version="opset1">
			<data element_type="f32" offset="5414668" shape="512,1,1,1" size="2048"/>
			<output>
				<port id="1" precision="FP32">
					<dim>512</dim>
					<dim>1</dim>
					<dim>1</dim>
					<dim>1</dim>
				</port>
			</output>
		</layer>
		<layer id="333" name="16461650_const" type="Const" version="opset1">
			<data element_type="f32" offset="5412620" shape="512,1,1,1" size="2048"/>
			<output>
				<port id="1" precision="FP32">
					<dim>512</dim>
					<dim>1</dim>
					<dim>1</dim>
					<dim>1</dim>
				</port>
			</output>
		</layer>
		<layer id="334" name="16471651_const" type="Const" version="opset1">
			<data element_type="f32" offset="5414668" shape="512,1,1,1" size="2048"/>
			<output>
				<port id="1" precision="FP32">
					<dim>512</dim>
					<dim>1</dim>
					<dim>1</dim>
					<dim>1</dim>
				</port>
			</output>
		</layer>
		<layer id="335" name="conv5_4/sep/fq_weights_1" type="FakeQuantize" version="opset1">
			<data levels="255"/>
			<input>
				<port id="0">
					<dim>512</dim>
					<dim>512</dim>
					<dim>1</dim>
					<dim>1</dim>
				</port>
				<port id="1">
					<dim>512</dim>
					<dim>1</dim>
					<dim>1</dim>
					<dim>1</dim>
				</port>
				<port id="2">
					<dim>512</dim>
					<dim>1</dim>
					<dim>1</dim>
					<dim>1</dim>
				</port>
				<port id="3">
					<dim>512</dim>
					<dim>1</dim>
					<dim>1</dim>
					<dim>1</dim>
				</port>
				<port id="4">
					<dim>512</dim>
					<dim>1</dim>
					<dim>1</dim>
					<dim>1</dim>
				</port>
			</input>
			<output>
				<port id="5" precision="FP32">
					<dim>512</dim>
					<dim>512</dim>
					<dim>1</dim>
					<dim>1</dim>
				</port>
			</output>
		</layer>
		<layer id="336" name="conv5_4/sep" type="Convolution" version="opset1">
			<data dilations="1,1" output_padding="0,0" pads_begin="0,0" pads_end="0,0" strides="1,1"/>
			<input>
				<port id="0">
					<dim>1</dim>
					<dim>512</dim>
					<dim>32</dim>
					<dim>57</dim>
				</port>
				<port id="1">
					<dim>512</dim>
					<dim>512</dim>
					<dim>1</dim>
					<dim>1</dim>
				</port>
			</input>
			<output>
				<port id="2" precision="FP32">
					<dim>1</dim>
					<dim>512</dim>
					<dim>32</dim>
					<dim>57</dim>
				</port>
			</output>
		</layer>
		<layer id="337" name="data_add_90889093/copy_const430_const" type="Const" version="opset1">
			<data element_type="f32" offset="5416716" shape="1,512,1,1" size="2048"/>
			<output>
				<port id="1" precision="FP32">
					<dim>1</dim>
					<dim>512</dim>
					<dim>1</dim>
					<dim>1</dim>
				</port>
			</output>
		</layer>
		<layer id="338" name="Add1_8052/Fused_Add_" type="Add" version="opset1">
			<input>
				<port id="0">
					<dim>1</dim>
					<dim>512</dim>
					<dim>32</dim>
					<dim>57</dim>
				</port>
				<port id="1">
					<dim>1</dim>
					<dim>512</dim>
					<dim>1</dim>
					<dim>1</dim>
				</port>
			</input>
			<output>
				<port id="2" precision="FP32">
					<dim>1</dim>
					<dim>512</dim>
					<dim>32</dim>
					<dim>57</dim>
				</port>
			</output>
		</layer>
		<layer id="339" name="relu5_4/sep" type="ReLU" version="opset1">
			<input>
				<port id="0">
					<dim>1</dim>
					<dim>512</dim>
					<dim>32</dim>
					<dim>57</dim>
				</port>
			</input>
			<output>
				<port id="1" precision="FP32">
					<dim>1</dim>
					<dim>512</dim>
					<dim>32</dim>
					<dim>57</dim>
				</port>
			</output>
		</layer>
		<layer id="340" name="13541358_const" type="Const" version="opset1">
			<data element_type="f32" offset="1091284" shape="1,512,1,1" size="2048"/>
			<output>
				<port id="1" precision="FP32">
					<dim>1</dim>
					<dim>512</dim>
					<dim>1</dim>
					<dim>1</dim>
				</port>
			</output>
		</layer>
		<layer id="341" name="13551359_const" type="Const" version="opset1">
			<data element_type="f32" offset="5418764" shape="1,512,1,1" size="2048"/>
			<output>
				<port id="1" precision="FP32">
					<dim>1</dim>
					<dim>512</dim>
					<dim>1</dim>
					<dim>1</dim>
				</port>
			</output>
		</layer>
		<layer id="342" name="13561360_const" type="Const" version="opset1">
			<data element_type="f32" offset="1091284" shape="1,512,1,1" size="2048"/>
			<output>
				<port id="1" precision="FP32">
					<dim>1</dim>
					<dim>512</dim>
					<dim>1</dim>
					<dim>1</dim>
				</port>
			</output>
		</layer>
		<layer id="343" name="13571361_const" type="Const" version="opset1">
			<data element_type="f32" offset="5418764" shape="1,512,1,1" size="2048"/>
			<output>
				<port id="1" precision="FP32">
					<dim>1</dim>
					<dim>512</dim>
					<dim>1</dim>
					<dim>1</dim>
				</port>
			</output>
		</layer>
		<layer id="344" name="conv5_5/dw/fq_input_0" type="FakeQuantize" version="opset1">
			<data levels="256"/>
			<input>
				<port id="0">
					<dim>1</dim>
					<dim>512</dim>
					<dim>32</dim>
					<dim>57</dim>
				</port>
				<port id="1">
					<dim>1</dim>
					<dim>512</dim>
					<dim>1</dim>
					<dim>1</dim>
				</port>
				<port id="2">
					<dim>1</dim>
					<dim>512</dim>
					<dim>1</dim>
					<dim>1</dim>
				</port>
				<port id="3">
					<dim>1</dim>
					<dim>512</dim>
					<dim>1</dim>
					<dim>1</dim>
				</port>
				<port id="4">
					<dim>1</dim>
					<dim>512</dim>
					<dim>1</dim>
					<dim>1</dim>
				</port>
			</input>
			<output>
				<port id="5" precision="FP32">
					<dim>1</dim>
					<dim>512</dim>
					<dim>32</dim>
					<dim>57</dim>
				</port>
			</output>
		</layer>
		<layer id="345" name="742635_const" type="Const" version="opset1">
			<data element_type="f32" offset="5420812" shape="512,1,3,3" size="18432"/>
			<output>
				<port id="1" precision="FP32">
					<dim>512</dim>
					<dim>1</dim>
					<dim>3</dim>
					<dim>3</dim>
				</port>
			</output>
		</layer>
		<layer id="346" name="13641368_const" type="Const" version="opset1">
			<data element_type="f32" offset="5439244" shape="512,1,1,1" size="2048"/>
			<output>
				<port id="1" precision="FP32">
					<dim>512</dim>
					<dim>1</dim>
					<dim>1</dim>
					<dim>1</dim>
				</port>
			</output>
		</layer>
		<layer id="347" name="13651369_const" type="Const" version="opset1">
			<data element_type="f32" offset="5441292" shape="512,1,1,1" size="2048"/>
			<output>
				<port id="1" precision="FP32">
					<dim>512</dim>
					<dim>1</dim>
					<dim>1</dim>
					<dim>1</dim>
				</port>
			</output>
		</layer>
		<layer id="348" name="13661370_const" type="Const" version="opset1">
			<data element_type="f32" offset="5439244" shape="512,1,1,1" size="2048"/>
			<output>
				<port id="1" precision="FP32">
					<dim>512</dim>
					<dim>1</dim>
					<dim>1</dim>
					<dim>1</dim>
				</port>
			</output>
		</layer>
		<layer id="349" name="13671371_const" type="Const" version="opset1">
			<data element_type="f32" offset="5441292" shape="512,1,1,1" size="2048"/>
			<output>
				<port id="1" precision="FP32">
					<dim>512</dim>
					<dim>1</dim>
					<dim>1</dim>
					<dim>1</dim>
				</port>
			</output>
		</layer>
		<layer id="350" name="conv5_5/dw/fq_weights_1" type="FakeQuantize" version="opset1">
			<data levels="255"/>
			<input>
				<port id="0">
					<dim>512</dim>
					<dim>1</dim>
					<dim>3</dim>
					<dim>3</dim>
				</port>
				<port id="1">
					<dim>512</dim>
					<dim>1</dim>
					<dim>1</dim>
					<dim>1</dim>
				</port>
				<port id="2">
					<dim>512</dim>
					<dim>1</dim>
					<dim>1</dim>
					<dim>1</dim>
				</port>
				<port id="3">
					<dim>512</dim>
					<dim>1</dim>
					<dim>1</dim>
					<dim>1</dim>
				</port>
				<port id="4">
					<dim>512</dim>
					<dim>1</dim>
					<dim>1</dim>
					<dim>1</dim>
				</port>
			</input>
			<output>
				<port id="5" precision="FP32">
					<dim>512</dim>
					<dim>1</dim>
					<dim>3</dim>
					<dim>3</dim>
				</port>
			</output>
		</layer>
		<layer id="351" name="4052/value4054_const" type="Const" version="opset1">
			<data element_type="i64" offset="1117908" shape="5" size="40"/>
			<output>
				<port id="1" precision="I64">
					<dim>5</dim>
				</port>
			</output>
		</layer>
		<layer id="352" name="4052" type="Reshape" version="opset1">
			<data special_zero="True"/>
			<input>
				<port id="0">
					<dim>512</dim>
					<dim>1</dim>
					<dim>3</dim>
					<dim>3</dim>
				</port>
				<port id="1">
					<dim>5</dim>
				</port>
			</input>
			<output>
				<port id="2" precision="FP32">
					<dim>512</dim>
					<dim>1</dim>
					<dim>1</dim>
					<dim>3</dim>
					<dim>3</dim>
				</port>
			</output>
		</layer>
		<layer id="353" name="conv5_5/dw" type="GroupConvolution" version="opset1">
			<data dilations="1,1" output_padding="0,0" pads_begin="1,1" pads_end="1,1" strides="1,1"/>
			<input>
				<port id="0">
					<dim>1</dim>
					<dim>512</dim>
					<dim>32</dim>
					<dim>57</dim>
				</port>
				<port id="1">
					<dim>512</dim>
					<dim>1</dim>
					<dim>1</dim>
					<dim>3</dim>
					<dim>3</dim>
				</port>
			</input>
			<output>
				<port id="2" precision="FP32">
					<dim>1</dim>
					<dim>512</dim>
					<dim>32</dim>
					<dim>57</dim>
				</port>
			</output>
		</layer>
		<layer id="354" name="data_add_90969101/copy_const435_const" type="Const" version="opset1">
			<data element_type="f32" offset="5443340" shape="1,512,1,1" size="2048"/>
			<output>
				<port id="1" precision="FP32">
					<dim>1</dim>
					<dim>512</dim>
					<dim>1</dim>
					<dim>1</dim>
				</port>
			</output>
		</layer>
		<layer id="355" name="Add1_8064/Fused_Add_" type="Add" version="opset1">
			<input>
				<port id="0">
					<dim>1</dim>
					<dim>512</dim>
					<dim>32</dim>
					<dim>57</dim>
				</port>
				<port id="1">
					<dim>1</dim>
					<dim>512</dim>
					<dim>1</dim>
					<dim>1</dim>
				</port>
			</input>
			<output>
				<port id="2" precision="FP32">
					<dim>1</dim>
					<dim>512</dim>
					<dim>32</dim>
					<dim>57</dim>
				</port>
			</output>
		</layer>
		<layer id="356" name="relu5_5/dw" type="ReLU" version="opset1">
			<input>
				<port id="0">
					<dim>1</dim>
					<dim>512</dim>
					<dim>32</dim>
					<dim>57</dim>
				</port>
			</input>
			<output>
				<port id="1" precision="FP32">
					<dim>1</dim>
					<dim>512</dim>
					<dim>32</dim>
					<dim>57</dim>
				</port>
			</output>
		</layer>
		<layer id="357" name="17141718_const" type="Const" version="opset1">
			<data element_type="f32" offset="5952" shape="" size="4"/>
			<output>
				<port id="1" precision="FP32"/>
			</output>
		</layer>
		<layer id="358" name="17151719_const" type="Const" version="opset1">
			<data element_type="f32" offset="5445388" shape="" size="4"/>
			<output>
				<port id="1" precision="FP32"/>
			</output>
		</layer>
		<layer id="359" name="17161720_const" type="Const" version="opset1">
			<data element_type="f32" offset="5952" shape="" size="4"/>
			<output>
				<port id="1" precision="FP32"/>
			</output>
		</layer>
		<layer id="360" name="17171721_const" type="Const" version="opset1">
			<data element_type="f32" offset="5445388" shape="" size="4"/>
			<output>
				<port id="1" precision="FP32"/>
			</output>
		</layer>
		<layer id="361" name="conv5_5/sep/fq_input_0" type="FakeQuantize" version="opset1">
			<data levels="256"/>
			<input>
				<port id="0">
					<dim>1</dim>
					<dim>512</dim>
					<dim>32</dim>
					<dim>57</dim>
				</port>
				<port id="1"/>
				<port id="2"/>
				<port id="3"/>
				<port id="4"/>
			</input>
			<output>
				<port id="5" precision="FP32">
					<dim>1</dim>
					<dim>512</dim>
					<dim>32</dim>
					<dim>57</dim>
				</port>
			</output>
		</layer>
		<layer id="362" name="Mul1_8075/Fused_Mul_96669668_const438_const" type="Const" version="opset1">
			<data element_type="f32" offset="5445392" shape="512,512,1,1" size="1048576"/>
			<output>
				<port id="1" precision="FP32">
					<dim>512</dim>
					<dim>512</dim>
					<dim>1</dim>
					<dim>1</dim>
				</port>
			</output>
		</layer>
		<layer id="363" name="17241728_const" type="Const" version="opset1">
			<data element_type="f32" offset="6493968" shape="512,1,1,1" size="2048"/>
			<output>
				<port id="1" precision="FP32">
					<dim>512</dim>
					<dim>1</dim>
					<dim>1</dim>
					<dim>1</dim>
				</port>
			</output>
		</layer>
		<layer id="364" name="17251729_const" type="Const" version="opset1">
			<data element_type="f32" offset="6496016" shape="512,1,1,1" size="2048"/>
			<output>
				<port id="1" precision="FP32">
					<dim>512</dim>
					<dim>1</dim>
					<dim>1</dim>
					<dim>1</dim>
				</port>
			</output>
		</layer>
		<layer id="365" name="17261730_const" type="Const" version="opset1">
			<data element_type="f32" offset="6493968" shape="512,1,1,1" size="2048"/>
			<output>
				<port id="1" precision="FP32">
					<dim>512</dim>
					<dim>1</dim>
					<dim>1</dim>
					<dim>1</dim>
				</port>
			</output>
		</layer>
		<layer id="366" name="17271731_const" type="Const" version="opset1">
			<data element_type="f32" offset="6496016" shape="512,1,1,1" size="2048"/>
			<output>
				<port id="1" precision="FP32">
					<dim>512</dim>
					<dim>1</dim>
					<dim>1</dim>
					<dim>1</dim>
				</port>
			</output>
		</layer>
		<layer id="367" name="conv5_5/sep/fq_weights_1" type="FakeQuantize" version="opset1">
			<data levels="255"/>
			<input>
				<port id="0">
					<dim>512</dim>
					<dim>512</dim>
					<dim>1</dim>
					<dim>1</dim>
				</port>
				<port id="1">
					<dim>512</dim>
					<dim>1</dim>
					<dim>1</dim>
					<dim>1</dim>
				</port>
				<port id="2">
					<dim>512</dim>
					<dim>1</dim>
					<dim>1</dim>
					<dim>1</dim>
				</port>
				<port id="3">
					<dim>512</dim>
					<dim>1</dim>
					<dim>1</dim>
					<dim>1</dim>
				</port>
				<port id="4">
					<dim>512</dim>
					<dim>1</dim>
					<dim>1</dim>
					<dim>1</dim>
				</port>
			</input>
			<output>
				<port id="5" precision="FP32">
					<dim>512</dim>
					<dim>512</dim>
					<dim>1</dim>
					<dim>1</dim>
				</port>
			</output>
		</layer>
		<layer id="368" name="conv5_5/sep" type="Convolution" version="opset1">
			<data dilations="1,1" output_padding="0,0" pads_begin="0,0" pads_end="0,0" strides="1,1"/>
			<input>
				<port id="0">
					<dim>1</dim>
					<dim>512</dim>
					<dim>32</dim>
					<dim>57</dim>
				</port>
				<port id="1">
					<dim>512</dim>
					<dim>512</dim>
					<dim>1</dim>
					<dim>1</dim>
				</port>
			</input>
			<output>
				<port id="2" precision="FP32">
					<dim>1</dim>
					<dim>512</dim>
					<dim>32</dim>
					<dim>57</dim>
				</port>
			</output>
		</layer>
		<layer id="369" name="data_add_91049109/copy_const440_const" type="Const" version="opset1">
			<data element_type="f32" offset="6498064" shape="1,512,1,1" size="2048"/>
			<output>
				<port id="1" precision="FP32">
					<dim>1</dim>
					<dim>512</dim>
					<dim>1</dim>
					<dim>1</dim>
				</port>
			</output>
		</layer>
		<layer id="370" name="Add1_8076/Fused_Add_" type="Add" version="opset1">
			<input>
				<port id="0">
					<dim>1</dim>
					<dim>512</dim>
					<dim>32</dim>
					<dim>57</dim>
				</port>
				<port id="1">
					<dim>1</dim>
					<dim>512</dim>
					<dim>1</dim>
					<dim>1</dim>
				</port>
			</input>
			<output>
				<port id="2" precision="FP32">
					<dim>1</dim>
					<dim>512</dim>
					<dim>32</dim>
					<dim>57</dim>
				</port>
			</output>
		</layer>
		<layer id="371" name="relu5_5/sep" type="ReLU" version="opset1">
			<input>
				<port id="0">
					<dim>1</dim>
					<dim>512</dim>
					<dim>32</dim>
					<dim>57</dim>
				</port>
			</input>
			<output>
				<port id="1" precision="FP32">
					<dim>1</dim>
					<dim>512</dim>
					<dim>32</dim>
					<dim>57</dim>
				</port>
			</output>
		</layer>
		<layer id="372" name="10141018_const" type="Const" version="opset1">
			<data element_type="f32" offset="5952" shape="" size="4"/>
			<output>
				<port id="1" precision="FP32"/>
			</output>
		</layer>
		<layer id="373" name="10151019_const" type="Const" version="opset1">
			<data element_type="f32" offset="6500112" shape="" size="4"/>
			<output>
				<port id="1" precision="FP32"/>
			</output>
		</layer>
		<layer id="374" name="10161020_const" type="Const" version="opset1">
			<data element_type="f32" offset="5952" shape="" size="4"/>
			<output>
				<port id="1" precision="FP32"/>
			</output>
		</layer>
		<layer id="375" name="10171021_const" type="Const" version="opset1">
			<data element_type="f32" offset="6500112" shape="" size="4"/>
			<output>
				<port id="1" precision="FP32"/>
			</output>
		</layer>
		<layer id="376" name="conv4_3_CPM/al/WithoutBiases/fq_input_0" type="FakeQuantize" version="opset1">
			<data levels="256"/>
			<input>
				<port id="0">
					<dim>1</dim>
					<dim>512</dim>
					<dim>32</dim>
					<dim>57</dim>
				</port>
				<port id="1"/>
				<port id="2"/>
				<port id="3"/>
				<port id="4"/>
			</input>
			<output>
				<port id="5" precision="FP32">
					<dim>1</dim>
					<dim>512</dim>
					<dim>32</dim>
					<dim>57</dim>
				</port>
			</output>
		</layer>
		<layer id="377" name="422/Output_0/Data__const443_const" type="Const" version="opset1">
			<data element_type="f32" offset="6500116" shape="128,512,1,1" size="262144"/>
			<output>
				<port id="1" precision="FP32">
					<dim>128</dim>
					<dim>512</dim>
					<dim>1</dim>
					<dim>1</dim>
				</port>
			</output>
		</layer>
		<layer id="378" name="10241028_const" type="Const" version="opset1">
			<data element_type="f32" offset="6762260" shape="128,1,1,1" size="512"/>
			<output>
				<port id="1" precision="FP32">
					<dim>128</dim>
					<dim>1</dim>
					<dim>1</dim>
					<dim>1</dim>
				</port>
			</output>
		</layer>
		<layer id="379" name="10251029_const" type="Const" version="opset1">
			<data element_type="f32" offset="6762772" shape="128,1,1,1" size="512"/>
			<output>
				<port id="1" precision="FP32">
					<dim>128</dim>
					<dim>1</dim>
					<dim>1</dim>
					<dim>1</dim>
				</port>
			</output>
		</layer>
		<layer id="380" name="10261030_const" type="Const" version="opset1">
			<data element_type="f32" offset="6762260" shape="128,1,1,1" size="512"/>
			<output>
				<port id="1" precision="FP32">
					<dim>128</dim>
					<dim>1</dim>
					<dim>1</dim>
					<dim>1</dim>
				</port>
			</output>
		</layer>
		<layer id="381" name="10271031_const" type="Const" version="opset1">
			<data element_type="f32" offset="6762772" shape="128,1,1,1" size="512"/>
			<output>
				<port id="1" precision="FP32">
					<dim>128</dim>
					<dim>1</dim>
					<dim>1</dim>
					<dim>1</dim>
				</port>
			</output>
		</layer>
		<layer id="382" name="conv4_3_CPM/al/WithoutBiases/fq_weights_1" type="FakeQuantize" version="opset1">
			<data levels="255"/>
			<input>
				<port id="0">
					<dim>128</dim>
					<dim>512</dim>
					<dim>1</dim>
					<dim>1</dim>
				</port>
				<port id="1">
					<dim>128</dim>
					<dim>1</dim>
					<dim>1</dim>
					<dim>1</dim>
				</port>
				<port id="2">
					<dim>128</dim>
					<dim>1</dim>
					<dim>1</dim>
					<dim>1</dim>
				</port>
				<port id="3">
					<dim>128</dim>
					<dim>1</dim>
					<dim>1</dim>
					<dim>1</dim>
				</port>
				<port id="4">
					<dim>128</dim>
					<dim>1</dim>
					<dim>1</dim>
					<dim>1</dim>
				</port>
			</input>
			<output>
				<port id="5" precision="FP32">
					<dim>128</dim>
					<dim>512</dim>
					<dim>1</dim>
					<dim>1</dim>
				</port>
			</output>
		</layer>
		<layer id="383" name="conv4_3_CPM/al/WithoutBiases" type="Convolution" version="opset1">
			<data dilations="1,1" output_padding="0,0" pads_begin="0,0" pads_end="0,0" strides="1,1"/>
			<input>
				<port id="0">
					<dim>1</dim>
					<dim>512</dim>
					<dim>32</dim>
					<dim>57</dim>
				</port>
				<port id="1">
					<dim>128</dim>
					<dim>512</dim>
					<dim>1</dim>
					<dim>1</dim>
				</port>
			</input>
			<output>
				<port id="2" precision="FP32">
					<dim>1</dim>
					<dim>128</dim>
					<dim>32</dim>
					<dim>57</dim>
				</port>
			</output>
		</layer>
		<layer id="384" name="conv4_3_CPM/al/Dims5484/copy_const445_const" type="Const" version="opset1">
			<data element_type="f32" offset="6763284" shape="1,128,1,1" size="512"/>
			<output>
				<port id="1" precision="FP32">
					<dim>1</dim>
					<dim>128</dim>
					<dim>1</dim>
					<dim>1</dim>
				</port>
			</output>
		</layer>
		<layer id="385" name="conv4_3_CPM/al" type="Add" version="opset1">
			<input>
				<port id="0">
					<dim>1</dim>
					<dim>128</dim>
					<dim>32</dim>
					<dim>57</dim>
				</port>
				<port id="1">
					<dim>1</dim>
					<dim>128</dim>
					<dim>1</dim>
					<dim>1</dim>
				</port>
			</input>
			<output>
				<port id="2" precision="FP32">
					<dim>1</dim>
					<dim>128</dim>
					<dim>32</dim>
					<dim>57</dim>
				</port>
			</output>
		</layer>
		<layer id="386" name="relu4_3_CPM/al" type="Elu" version="opset1">
			<data alpha="1.0"/>
			<input>
				<port id="0">
					<dim>1</dim>
					<dim>128</dim>
					<dim>32</dim>
					<dim>57</dim>
				</port>
			</input>
			<output>
				<port id="1" precision="FP32">
					<dim>1</dim>
					<dim>128</dim>
					<dim>32</dim>
					<dim>57</dim>
				</port>
			</output>
		</layer>
		<layer id="387" name="10541058_const" type="Const" version="opset1">
			<data element_type="f32" offset="6763796" shape="" size="4"/>
			<output>
				<port id="1" precision="FP32"/>
			</output>
		</layer>
		<layer id="388" name="10551059_const" type="Const" version="opset1">
			<data element_type="f32" offset="6763800" shape="" size="4"/>
			<output>
				<port id="1" precision="FP32"/>
			</output>
		</layer>
		<layer id="389" name="10561060_const" type="Const" version="opset1">
			<data element_type="f32" offset="6763796" shape="" size="4"/>
			<output>
				<port id="1" precision="FP32"/>
			</output>
		</layer>
		<layer id="390" name="10571061_const" type="Const" version="opset1">
			<data element_type="f32" offset="6763800" shape="" size="4"/>
			<output>
				<port id="1" precision="FP32"/>
			</output>
		</layer>
		<layer id="391" name="conv4_3_CPM/red/WithoutBiases/fq_input_0" type="FakeQuantize" version="opset1">
			<data levels="256"/>
			<input>
				<port id="0">
					<dim>1</dim>
					<dim>128</dim>
					<dim>32</dim>
					<dim>57</dim>
				</port>
				<port id="1"/>
				<port id="2"/>
				<port id="3"/>
				<port id="4"/>
			</input>
			<output>
				<port id="5" precision="FP32">
					<dim>1</dim>
					<dim>128</dim>
					<dim>32</dim>
					<dim>57</dim>
				</port>
			</output>
		</layer>
		<layer id="392" name="378/Output_0/Data__const448_const" type="Const" version="opset1">
			<data element_type="f32" offset="6763804" shape="128,128,1,1" size="65536"/>
			<output>
				<port id="1" precision="FP32">
					<dim>128</dim>
					<dim>128</dim>
					<dim>1</dim>
					<dim>1</dim>
				</port>
			</output>
		</layer>
		<layer id="393" name="10641068_const" type="Const" version="opset1">
			<data element_type="f32" offset="6829340" shape="128,1,1,1" size="512"/>
			<output>
				<port id="1" precision="FP32">
					<dim>128</dim>
					<dim>1</dim>
					<dim>1</dim>
					<dim>1</dim>
				</port>
			</output>
		</layer>
		<layer id="394" name="10651069_const" type="Const" version="opset1">
			<data element_type="f32" offset="6829852" shape="128,1,1,1" size="512"/>
			<output>
				<port id="1" precision="FP32">
					<dim>128</dim>
					<dim>1</dim>
					<dim>1</dim>
					<dim>1</dim>
				</port>
			</output>
		</layer>
		<layer id="395" name="10661070_const" type="Const" version="opset1">
			<data element_type="f32" offset="6829340" shape="128,1,1,1" size="512"/>
			<output>
				<port id="1" precision="FP32">
					<dim>128</dim>
					<dim>1</dim>
					<dim>1</dim>
					<dim>1</dim>
				</port>
			</output>
		</layer>
		<layer id="396" name="10671071_const" type="Const" version="opset1">
			<data element_type="f32" offset="6829852" shape="128,1,1,1" size="512"/>
			<output>
				<port id="1" precision="FP32">
					<dim>128</dim>
					<dim>1</dim>
					<dim>1</dim>
					<dim>1</dim>
				</port>
			</output>
		</layer>
		<layer id="397" name="conv4_3_CPM/red/WithoutBiases/fq_weights_1" type="FakeQuantize" version="opset1">
			<data levels="255"/>
			<input>
				<port id="0">
					<dim>128</dim>
					<dim>128</dim>
					<dim>1</dim>
					<dim>1</dim>
				</port>
				<port id="1">
					<dim>128</dim>
					<dim>1</dim>
					<dim>1</dim>
					<dim>1</dim>
				</port>
				<port id="2">
					<dim>128</dim>
					<dim>1</dim>
					<dim>1</dim>
					<dim>1</dim>
				</port>
				<port id="3">
					<dim>128</dim>
					<dim>1</dim>
					<dim>1</dim>
					<dim>1</dim>
				</port>
				<port id="4">
					<dim>128</dim>
					<dim>1</dim>
					<dim>1</dim>
					<dim>1</dim>
				</port>
			</input>
			<output>
				<port id="5" precision="FP32">
					<dim>128</dim>
					<dim>128</dim>
					<dim>1</dim>
					<dim>1</dim>
				</port>
			</output>
		</layer>
		<layer id="398" name="conv4_3_CPM/red/WithoutBiases" type="Convolution" version="opset1">
…
		<edge from-layer="235" from-port="1" to-layer="239" to-port="1"/>
		<edge from-layer="236" from-port="1" to-layer="239" to-port="2"/>
		<edge from-layer="237" from-port="1" to-layer="239" to-port="3"/>
		<edge from-layer="238" from-port="1" to-layer="239" to-port="4"/>
		<edge from-layer="233" from-port="5" to-layer="240" to-port="0"/>
		<edge from-layer="239" from-port="5" to-layer="240" to-port="1"/>
		<edge from-layer="240" from-port="2" to-layer="242" to-port="0"/>
		<edge from-layer="241" from-port="1" to-layer="242" to-port="1"/>
		<edge from-layer="242" from-port="2" to-layer="243" to-port="0"/>
		<edge from-layer="243" from-port="1" to-layer="248" to-port="0"/>
		<edge from-layer="244" from-port="1" to-layer="248" to-port="1"/>
		<edge from-layer="245" from-port="1" to-layer="248" to-port="2"/>
		<edge from-layer="246" from-port="1" to-layer="248" to-port="3"/>
		<edge from-layer="247" from-port="1" to-layer="248" to-port="4"/>
		<edge from-layer="249" from-port="1" to-layer="254" to-port="0"/>
		<edge from-layer="250" from-port="1" to-layer="254" to-port="1"/>
		<edge from-layer="251" from-port="1" to-layer="254" to-port="2"/>
		<edge from-layer="252" from-port="1" to-layer="254" to-port="3"/>
		<edge from-layer="253" from-port="1" to-layer="254" to-port="4"/>
		<edge from-layer="254" from-port="5" to-layer="256" to-port="0"/>
		<edge from-layer="255" from-port="1" to-layer="256" to-port="1"/>
		<edge from-layer="248" from-port="5" to-layer="257" to-port="0"/>
		<edge from-layer="256" from-port="2" to-layer="257" to-port="1"/>
		<edge from-layer="257" from-port="2" to-layer="259" to-port="0"/>
		<edge from-layer="258" from-port="1" to-layer="259" to-port="1"/>
		<edge from-layer="259" from-port="2" to-layer="260" to-port="0"/>
		<edge from-layer="260" from-port="1" to-layer="265" to-port="0"/>
		<edge from-layer="261" from-port="1" to-layer="265" to-port="1"/>
		<edge from-layer="262" from-port="1" to-layer="265" to-port="2"/>
		<edge from-layer="263" from-port="1" to-layer="265" to-port="3"/>
		<edge from-layer="264" from-port="1" to-layer="265" to-port="4"/>
		<edge from-layer="266" from-port="1" to-layer="271" to-port="0"/>
		<edge from-layer="267" from-port="1" to-layer="271" to-port="1"/>
		<edge from-layer="268" from-port="1" to-layer="271" to-port="2"/>
		<edge from-layer="269" from-port="1" to-layer="271" to-port="3"/>
		<edge from-layer="270" from-port="1" to-layer="271" to-port="4"/>
		<edge from-layer="265" from-port="5" to-layer="272" to-port="0"/>
		<edge from-layer="271" from-port="5" to-layer="272" to-port="1"/>
		<edge from-layer="272" from-port="2" to-layer="274" to-port="0"/>
		<edge from-layer="273" from-port="1" to-layer="274" to-port="1"/>
		<edge from-layer="274" from-port="2" to-layer="275" to-port="0"/>
		<edge from-layer="275" from-port="1" to-layer="280" to-port="0"/>
		<edge from-layer="276" from-port="1" to-layer="280" to-port="1"/>
		<edge from-layer="277" from-port="1" to-layer="280" to-port="2"/>
		<edge from-layer="278" from-port="1" to-layer="280" to-port="3"/>
		<edge from-layer="279" from-port="1" to-layer="280" to-port="4"/>
		<edge from-layer="281" from-port="1" to-layer="286" to-port="0"/>
		<edge from-layer="282" from-port="1" to-layer="286" to-port="1"/>
		<edge from-layer="283" from-port="1" to-layer="286" to-port="2"/>
		<edge from-layer="284" from-port="1" to-layer="286" to-port="3"/>
		<edge from-layer="285" from-port="1" to-layer="286" to-port="4"/>
		<edge from-layer="286" from-port="5" to-layer="288" to-port="0"/>
		<edge from-layer="287" from-port="1" to-layer="288" to-port="1"/>
		<edge from-layer="280" from-port="5" to-layer="289" to-port="0"/>
		<edge from-layer="288" from-port="2" to-layer="289" to-port="1"/>
		<edge from-layer="289" from-port="2" to-layer="291" to-port="0"/>
		<edge from-layer="290" from-port="1" to-layer="291" to-port="1"/>
		<edge from-layer="291" from-port="2" to-layer="292" to-port="0"/>
		<edge from-layer="292" from-port="1" to-layer="297" to-port="0"/>
		<edge from-layer="293" from-port="1" to-layer="297" to-port="1"/>
		<edge from-layer="294" from-port="1" to-layer="297" to-port="2"/>
		<edge from-layer="295" from-port="1" to-layer="297" to-port="3"/>
		<edge from-layer="296" from-port="1" to-layer="297" to-port="4"/>
		<edge from-layer="298" from-port="1" to-layer="303" to-port="0"/>
		<edge from-layer="299" from-port="1" to-layer="303" to-port="1"/>
		<edge from-layer="300" from-port="1" to-layer="303" to-port="2"/>
		<edge from-layer="301" from-port="1" to-layer="303" to-port="3"/>
		<edge from-layer="302" from-port="1" to-layer="303" to-port="4"/>
		<edge from-layer="297" from-port="5" to-layer="304" to-port="0"/>
		<edge from-layer="303" from-port="5" to-layer="304" to-port="1"/>
		<edge from-layer="304" from-port="2" to-layer="306" to-port="0"/>
		<edge from-layer="305" from-port="1" to-layer="306" to-port="1"/>
		<edge from-layer="306" from-port="2" to-layer="307" to-port="0"/>
		<edge from-layer="307" from-port="1" to-layer="312" to-port="0"/>
		<edge from-layer="308" from-port="1" to-layer="312" to-port="1"/>
		<edge from-layer="309" from-port="1" to-layer="312" to-port="2"/>
		<edge from-layer="310" from-port="1" to-layer="312" to-port="3"/>
		<edge from-layer="311" from-port="1" to-layer="312" to-port="4"/>
		<edge from-layer="313" from-port="1" to-layer="318" to-port="0"/>
		<edge from-layer="314" from-port="1" to-layer="318" to-port="1"/>
		<edge from-layer="315" from-port="1" to-layer="318" to-port="2"/>
		<edge from-layer="316" from-port="1" to-layer="318" to-port="3"/>
		<edge from-layer="317" from-port="1" to-layer="318" to-port="4"/>
		<edge from-layer="318" from-port="5" to-layer="320" to-port="0"/>
		<edge from-layer="319" from-port="1" to-layer="320" to-port="1"/>
		<edge from-layer="312" from-port="5" to-layer="321" to-port="0"/>
		<edge from-layer="320" from-port="2" to-layer="321" to-port="1"/>
		<edge from-layer="321" from-port="2" to-layer="323" to-port="0"/>
		<edge from-layer="322" from-port="1" to-layer="323" to-port="1"/>
		<edge from-layer="323" from-port="2" to-layer="324" to-port="0"/>
		<edge from-layer="324" from-port="1" to-layer="329" to-port="0"/>
		<edge from-layer="325" from-port="1" to-layer="329" to-port="1"/>
		<edge from-layer="326" from-port="1" to-layer="329" to-port="2"/>
		<edge from-layer="327" from-port="1" to-layer="329" to-port="3"/>
		<edge from-layer="328" from-port="1" to-layer="329" to-port="4"/>
		<edge from-layer="330" from-port="1" to-layer="335" to-port="0"/>
		<edge from-layer="331" from-port="1" to-layer="335" to-port="1"/>
		<edge from-layer="332" from-port="1" to-layer="335" to-port="2"/>
		<edge from-layer="333" from-port="1" to-layer="335" to-port="3"/>
		<edge from-layer="334" from-port="1" to-layer="335" to-port="4"/>
		<edge from-layer="329" from-port="5" to-layer="336" to-port="0"/>
		<edge from-layer="335" from-port="5" to-layer="336" to-port="1"/>
		<edge from-layer="336" from-port="2" to-layer="338" to-port="0"/>
		<edge from-layer="337" from-port="1" to-layer="338" to-port="1"/>
		<edge from-layer="338" from-port="2" to-layer="339" to-port="0"/>
		<edge from-layer="339" from-port="1" to-layer="344" to-port="0"/>
		<edge from-layer="340" from-port="1" to-layer="344" to-port="1"/>
		<edge from-layer="341" from-port="1" to-layer="344" to-port="2"/>
		<edge from-layer="342" from-port="1" to-layer="344" to-port="3"/>
		<edge from-layer="343" from-port="1" to-layer="344" to-port="4"/>
		<edge from-layer="345" from-port="1" to-layer="350" to-port="0"/>
		<edge from-layer="346" from-port="1" to-layer="350" to-port="1"/>
		<edge from-layer="347" from-port="1" to-layer="350" to-port="2"/>
		<edge from-layer="348" from-port="1" to-layer="350" to-port="3"/>
		<edge from-layer="349" from-port="1" to-layer="350" to-port="4"/>
		<edge from-layer="350" from-port="5" to-layer="352" to-port="0"/>
		<edge from-layer="351" from-port="1" to-layer="352" to-port="1"/>
		<edge from-layer="344" from-port="5" to-layer="353" to-port="0"/>
		<edge from-layer="352" from-port="2" to-layer="353" to-port="1"/>
		<edge from-layer="353" from-port="2" to-layer="355" to-port="0"/>
		<edge from-layer="354" from-port="1" to-layer="355" to-port="1"/>
		<edge from-layer="355" from-port="2" to-layer="356" to-port="0"/>
		<edge from-layer="356" from-port="1" to-layer="361" to-port="0"/>
		<edge from-layer="357" from-port="1" to-layer="361" to-port="1"/>
		<edge from-layer="358" from-port="1" to-layer="361" to-port="2"/>
		<edge from-layer="359" from-port="1" to-layer="361" to-port="3"/>
		<edge from-layer="360" from-port="1" to-layer="361" to-port="4"/>
		<edge from-layer="362" from-port="1" to-layer="367" to-port="0"/>
		<edge from-layer="363" from-port="1" to-layer="367" to-port="1"/>
		<edge from-layer="364" from-port="1" to-layer="367" to-port="2"/>
		<edge from-layer="365" from-port="1" to-layer="367" to-port="3"/>
		<edge from-layer="366" from-port="1" to-layer="367" to-port="4"/>
		<edge from-layer="361" from-port="5" to-layer="368" to-port="0"/>
		<edge from-layer="367" from-port="5" to-layer="368" to-port="1"/>
		<edge from-layer="368" from-port="2" to-layer="370" to-port="0"/>
		<edge from-layer="369" from-port="1" to-layer="370" to-port="1"/>
		<edge from-layer="370" from-port="2" to-layer="371" to-port="0"/>
		<edge from-layer="371" from-port="1" to-layer="376" to-port="0"/>
		<edge from-layer="372" from-port="1" to-layer="376" to-port="1"/>
		<edge from-layer="373" from-port="1" to-layer="376" to-port="2"/>
		<edge from-layer="374" from-port="1" to-layer="376" to-port="3"/>
		<edge from-layer="375" from-port="1" to-layer="376" to-port="4"/>
		<edge from-layer="377" from-port="1" to-layer="382" to-port="0"/>
		<edge from-layer="378" from-port="1" to-layer="382" to-port="1"/>
		<edge from-layer="379" from-port="1" to-layer="382" to-port="2"/>
		<edge from-layer="380" from-port="1" to-layer="382" to-port="3"/>
		<edge from-layer="381" from-port="1" to-layer="382" to-port="4"/>
		<edge from-layer="376" from-port="5" to-layer="383" to-port="0"/>
		<edge from-layer="382" from-port="5" to-layer="383" to-port="1"/>
		<edge from-layer="383" from-port="2" to-layer="385" to-port="0"/>
		<edge from-layer="384" from-port="1" to-layer="385" to-port="1"/>
		<edge from-layer="385" from-port="2" to-layer="386" to-port="0"/>
		<edge from-layer="386" from-port="1" to-layer="391" to-port="0"/>
		<edge from-layer="387" from-port="1" to-layer="391" to-port="1"/>
		<edge from-layer="388" from-port="1" to-layer="391" to-port="2"/>
		<edge from-layer="389" from-port="1" to-layer="391" to-port="3"/>
		<edge from-layer="390" from-port="1" to-layer="391" to-port="4"/>
		<edge from-layer="392" from-port="1" to-layer="397" to-port="0"/>
		<edge from-layer="393" from-port="1" to-layer="397" to-port="1"/>
		<edge from-layer="394" from-port="1" to-layer="397" to-port="2"/>
		<edge from-layer="395" from-port="1" to-layer="397" to-port="3"/>
		<edge from-layer="396" from-port="1" to-layer="397" to-port="4"/>
		<edge from-layer="391" from-port="5" to-layer="398" to-port="0"/>
		<edge from-layer="397" from-port="5" to-layer="398" to-port="1"/>
		<edge from-layer="398" from-port="2" to-layer="400" to-port="0"/>
		<edge from-layer="399" from-port="1" to-layer="400" to-port="1"/>
		<edge from-layer="400" from-port="2" to-layer="401" to-port="0"/>
		<edge from-layer="401" from-port="1" to-layer="406" to-port="0"/>
		<edge from-layer="402" from-port="1" to-layer="406" to-port="1"/>
		<edge from-layer="403" from-port="1" to-layer="406" to-port="2"/>
		<edge from-layer="404" from-port="1" to-layer="406" to-port="3"/>
		<edge from-layer="405" from-port="1" to-layer="406" to-port="4"/>
		<edge from-layer="407" from-port="1" to-layer="412" to-port="0"/>
		<edge from-layer="408" from-port="1" to-layer="412" to-port="1"/>
		<edge from-layer="409" from-port="1" to-layer="412" to-port="2"/>
		<edge from-layer="410" from-port="1" to-layer="412" to-port="3"/>
		<edge from-layer="411" from-port="1" to-layer="412" to-port="4"/>
		<edge from-layer="412" from-port="5" to-layer="414" to-port="0"/>
		<edge from-layer="413" from-port="1" to-layer="414" to-port="1"/>
		<edge from-layer="406" from-port="5" to-layer="415" to-port="0"/>
		<edge from-layer="414" from-port="2" to-layer="415" to-port="1"/>
		<edge from-layer="415" from-port="2" to-layer="416" to-port="0"/>
		<edge from-layer="416" from-port="1" to-layer="421" to-port="0"/>
		<edge from-layer="417" from-port="1" to-layer="421" to-port="1"/>
		<edge from-layer="418" from-port="1" to-layer="421" to-port="2"/>
		<edge from-layer="419" from-port="1" to-layer="421" to-port="3"/>
		<edge from-layer="420" from-port="1" to-layer="421" to-port="4"/>
		<edge from-layer="422" from-port="1" to-layer="427" to-port="0"/>
		<edge from-layer="423" from-port="1" to-layer="427" to-port="1"/>
		<edge from-layer="424" from-port="1" to-layer="427" to-port="2"/>
		<edge from-layer="425" from-port="1" to-layer="427" to-port="3"/>
		<edge from-layer="426" from-port="1" to-layer="427" to-port="4"/>
		<edge from-layer="421" from-port="5" to-layer="428" to-port="0"/>
		<edge from-layer="427" from-port="5" to-layer="428" to-port="1"/>
		<edge from-layer="428" from-port="2" to-layer="430" to-port="0"/>
		<edge from-layer="429" from-port="1" to-layer="430" to-port="1"/>
		<edge from-layer="430" from-port="2" to-layer="431" to-port="0"/>
		<edge from-layer="431" from-port="1" to-layer="436" to-port="0"/>
		<edge from-layer="432" from-port="1" to-layer="436" to-port="1"/>
		<edge from-layer="433" from-port="1" to-layer="436" to-port="2"/>
		<edge from-layer="434" from-port="1" to-layer="436" to-port="3"/>
		<edge from-layer="435" from-port="1" to-layer="436" to-port="4"/>
		<edge from-layer="437" from-port="1" to-layer="442" to-port="0"/>
		<edge from-layer="438" from-port="1" to-layer="442" to-port="1"/>
		<edge from-layer="439" from-port="1" to-layer="442" to-port="2"/>
		<edge from-layer="440" from-port="1" to-layer="442" to-port="3"/>
		<edge from-layer="441" from-port="1" to-layer="442" to-port="4"/>
		<edge from-layer="442" from-port="5" to-layer="444" to-port="0"/>
		<edge from-layer="443" from-port="1" to-layer="444" to-port="1"/>
		<edge from-layer="436" from-port="5" to-layer="445" to-port="0"/>
		<edge from-layer="444" from-port="2" to-layer="445" to-port="1"/>
		<edge from-layer="445" from-port="2" to-layer="446" to-port="0"/>
		<edge from-layer="446" from-port="1" to-layer="451" to-port="0"/>
		<edge from-layer="447" from-port="1" to-layer="451" to-port="1"/>
		<edge from-layer="448" from-port="1" to-layer="451" to-port="2"/>
		<edge from-layer="449" from-port="1" to-layer="451" to-port="3"/>
		<edge from-layer="450" from-port="1" to-layer="451" to-port="4"/>
		<edge from-layer="452" from-port="1" to-layer="457" to-port="0"/>
		<edge from-layer="453" from-port="1" to-layer="457" to-port="1"/>
		<edge from-layer="454" from-port="1" to-layer="457" to-port="2"/>
		<edge from-layer="455" from-port="1" to-layer="457" to-port="3"/>
		<edge from-layer="456" from-port="1" to-layer="457" to-port="4"/>
		<edge from-layer="451" from-port="5" to-layer="458" to-port="0"/>
		<edge from-layer="457" from-port="5" to-layer="458" to-port="1"/>
		<edge from-layer="458" from-port="2" to-layer="460" to-port="0"/>
		<edge from-layer="459" from-port="1" to-layer="460" to-port="1"/>
		<edge from-layer="460" from-port="2" to-layer="461" to-port="0"/>
		<edge from-layer="461" from-port="1" to-layer="466" to-port="0"/>
		<edge from-layer="462" from-port="1" to-layer="466" to-port="1"/>
		<edge from-layer="463" from-port="1" to-layer="466" to-port="2"/>
		<edge from-layer="464" from-port="1" to-layer="466" to-port="3"/>
		<edge from-layer="465" from-port="1" to-layer="466" to-port="4"/>
		<edge from-layer="467" from-port="1" to-layer="472" to-port="0"/>
		<edge from-layer="468" from-port="1" to-layer="472" to-port="1"/>
		<edge from-layer="469" from-port="1" to-layer="472" to-port="2"/>
		<edge from-layer="470" from-port="1" to-layer="472" to-port="3"/>
		<edge from-layer="471" from-port="1" to-layer="472" to-port="4"/>
		<edge from-layer="472" from-port="5" to-layer="474" to-port="0"/>
		<edge from-layer="473" from-port="1" to-layer="474" to-port="1"/>
		<edge from-layer="466" from-port="5" to-layer="475" to-port="0"/>
		<edge from-layer="474" from-port="2" to-layer="475" to-port="1"/>
		<edge from-layer="475" from-port="2" to-layer="476" to-port="0"/>
		<edge from-layer="476" from-port="1" to-layer="481" to-port="0"/>
		<edge from-layer="477" from-port="1" to-layer="481" to-port="1"/>
		<edge from-layer="478" from-port="1" to-layer="481" to-port="2"/>
		<edge from-layer="479" from-port="1" to-layer="481" to-port="3"/>
		<edge from-layer="480" from-port="1" to-layer="481" to-port="4"/>
		<edge from-layer="482" from-port="1" to-layer="487" to-port="0"/>
		<edge from-layer="483" from-port="1" to-layer="487" to-port="1"/>
		<edge from-layer="484" from-port="1" to-layer="487" to-port="2"/>
		<edge from-layer="485" from-port="1" to-layer="487" to-port="3"/>
		<edge from-layer="486" from-port="1" to-layer="487" to-port="4"/>
		<edge from-layer="481" from-port="5" to-layer="488" to-port="0"/>
		<edge from-layer="487" from-port="5" to-layer="488" to-port="1"/>
		<edge from-layer="488" from-port="2" to-layer="490" to-port="0"/>
		<edge from-layer="489" from-port="1" to-layer="490" to-port="1"/>
		<edge from-layer="490" from-port="2" to-layer="491" to-port="0"/>
		<edge from-layer="491" from-port="1" to-layer="496" to-port="0"/>
		<edge from-layer="492" from-port="1" to-layer="496" to-port="1"/>
		<edge from-layer="493" from-port="1" to-layer="496" to-port="2"/>
		<edge from-layer="494" from-port="1" to-layer="496" to-port="3"/>
		<edge from-layer="495" from-port="1" to-layer="496" to-port="4"/>
		<edge from-layer="391" from-port="5" to-layer="497" to-port="0"/>
		<edge from-layer="496" from-port="5" to-layer="497" to-port="1"/>
		<edge from-layer="497" from-port="2" to-layer="502" to-port="0"/>
		<edge from-layer="498" from-port="1" to-layer="502" to-port="1"/>
		<edge from-layer="499" from-port="1" to-layer="502" to-port="2"/>
		<edge from-layer="500" from-port="1" to-layer="502" to-port="3"/>
		<edge from-layer="501" from-port="1" to-layer="502" to-port="4"/>
		<edge from-layer="503" from-port="1" to-layer="508" to-port="0"/>
		<edge from-layer="504" from-port="1" to-layer="508" to-port="1"/>
		<edge from-layer="505" from-port="1" to-layer="508" to-port="2"/>
		<edge from-layer="506" from-port="1" to-layer="508" to-port="3"/>
		<edge from-layer="507" from-port="1" to-layer="508" to-port="4"/>
		<edge from-layer="502" from-port="5" to-layer="509" to-port="0"/>
		<edge from-layer="508" from-port="5" to-layer="509" to-port="1"/>
		<edge from-layer="509" from-port="2" to-layer="511" to-port="0"/>
		<edge from-layer="510" from-port="1" to-layer="511" to-port="1"/>
		<edge from-layer="511" from-port="2" to-layer="512" to-port="0"/>
		<edge from-layer="512" from-port="1" to-layer="517" to-port="0"/>
		<edge from-layer="513" from-port="1" to-layer="517" to-port="1"/>
		<edge from-layer="514" from-port="1" to-layer="517" to-port="2"/>
		<edge from-layer="515" from-port="1" to-layer="517" to-port="3"/>
		<edge from-layer="516" from-port="1" to-layer="517" to-port="4"/>
		<edge from-layer="518" from-port="1" to-layer="523" to-port="0"/>
		<edge from-layer="519" from-port="1" to-layer="523" to-port="1"/>
		<edge from-layer="520" from-port="1" to-layer="523" to-port="2"/>
		<edge from-layer="521" from-port="1" to-layer="523" to-port="3"/>
		<edge from-layer="522" from-port="1" to-layer="523" to-port="4"/>
		<edge from-layer="517" from-port="5" to-layer="524" to-port="0"/>
		<edge from-layer="523" from-port="5" to-layer="524" to-port="1"/>
		<edge from-layer="524" from-port="2" to-layer="526" to-port="0"/>
		<edge from-layer="525" from-port="1" to-layer="526" to-port="1"/>
		<edge from-layer="526" from-port="2" to-layer="527" to-port="0"/>
		<edge from-layer="527" from-port="1" to-layer="532" to-port="0"/>
		<edge from-layer="528" from-port="1" to-layer="532" to-port="1"/>
		<edge from-layer="529" from-port="1" to-layer="532" to-port="2"/>
		<edge from-layer="530" from-port="1" to-layer="532" to-port="3"/>
		<edge from-layer="531" from-port="1" to-layer="532" to-port="4"/>
		<edge from-layer="533" from-port="1" to-layer="538" to-port="0"/>
		<edge from-layer="534" from-port="1" to-layer="538" to-port="1"/>
		<edge from-layer="535" from-port="1" to-layer="538" to-port="2"/>
		<edge from-layer="536" from-port="1" to-layer="538" to-port="3"/>
		<edge from-layer="537" from-port="1" to-layer="538" to-port="4"/>
		<edge from-layer="532" from-port="5" to-layer="539" to-port="0"/>
		<edge from-layer="538" from-port="5" to-layer="539" to-port="1"/>
		<edge from-layer="539" from-port="2" to-layer="541" to-port="0"/>
		<edge from-layer="540" from-port="1" to-layer="541" to-port="1"/>
		<edge from-layer="541" from-port="2" to-layer="542" to-port="0"/>
		<edge from-layer="542" from-port="1" to-layer="547" to-port="0"/>
		<edge from-layer="543" from-port="1" to-layer="547" to-port="1"/>
		<edge from-layer="544" from-port="1" to-layer="547" to-port="2"/>
		<edge from-layer="545" from-port="1" to-layer="547" to-port="3"/>
		<edge from-layer="546" from-port="1" to-layer="547" to-port="4"/>
		<edge from-layer="548" from-port="1" to-layer="553" to-port="0"/>
		<edge from-layer="549" from-port="1" to-layer="553" to-port="1"/>
		<edge from-layer="550" from-port="1" to-layer="553" to-port="2"/>
		<edge from-layer="551" from-port="1" to-layer="553" to-port="3"/>
		<edge from-layer="552" from-port="1" to-layer="553" to-port="4"/>
		<edge from-layer="547" from-port="5" to-layer="554" to-port="0"/>
		<edge from-layer="553" from-port="5" to-layer="554" to-port="1"/>
		<edge from-layer="554" from-port="2" to-layer="556" to-port="0"/>
		<edge from-layer="555" from-port="1" to-layer="556" to-port="1"/>
		<edge from-layer="556" from-port="2" to-layer="557" to-port="0"/>
		<edge from-layer="557" from-port="1" to-layer="562" to-port="0"/>
		<edge from-layer="558" from-port="1" to-layer="562" to-port="1"/>
		<edge from-layer="559" from-port="1" to-layer="562" to-port="2"/>
		<edge from-layer="560" from-port="1" to-layer="562" to-port="3"/>
		<edge from-layer="561" from-port="1" to-layer="562" to-port="4"/>
		<edge from-layer="563" from-port="1" to-layer="568" to-port="0"/>
		<edge from-layer="564" from-port="1" to-layer="568" to-port="1"/>
		<edge from-layer="565" from-port="1" to-layer="568" to-port="2"/>
		<edge from-layer="566" from-port="1" to-layer="568" to-port="3"/>
		<edge from-layer="567" from-port="1" to-layer="568" to-port="4"/>
		<edge from-layer="562" from-port="5" to-layer="569" to-port="0"/>
		<edge from-layer="568" from-port="5" to-layer="569" to-port="1"/>
		<edge from-layer="569" from-port="2" to-layer="571" to-port="0"/>
		<edge from-layer="570" from-port="1" to-layer="571" to-port="1"/>
		<edge from-layer="571" from-port="2" to-layer="572" to-port="0"/>
		<edge from-layer="572" from-port="1" to-layer="577" to-port="0"/>
		<edge from-layer="573" from-port="1" to-layer="577" to-port="1"/>
		<edge from-layer="574" from-port="1" to-layer="577" to-port="2"/>
		<edge from-layer="575" from-port="1" to-layer="577" to-port="3"/>
		<edge from-layer="576" from-port="1" to-layer="577" to-port="4"/>
		<edge from-layer="578" from-port="1" to-layer="583" to-port="0"/>
		<edge from-layer="579" from-port="1" to-layer="583" to-port="1"/>
		<edge from-layer="580" from-port="1" to-layer="583" to-port="2"/>
		<edge from-layer="581" from-port="1" to-layer="583" to-port="3"/>
		<edge from-layer="582" from-port="1" to-layer="583" to-port="4"/>
		<edge from-layer="577" from-port="5" to-layer="584" to-port="0"/>
		<edge from-layer="583" from-port="5" to-layer="584" to-port="1"/>
		<edge from-layer="584" from-port="2" to-layer="586" to-port="0"/>
		<edge from-layer="585" from-port="1" to-layer="586" to-port="1"/>
		<edge from-layer="586" from-port="2" to-layer="591" to-port="0"/>
		<edge from-layer="587" from-port="1" to-layer="591" to-port="1"/>
		<edge from-layer="588" from-port="1" to-layer="591" to-port="2"/>
		<edge from-layer="589" from-port="1" to-layer="591" to-port="3"/>
		<edge from-layer="590" from-port="1" to-layer="591" to-port="4"/>
		<edge from-layer="592" from-port="1" to-layer="597" to-port="0"/>
		<edge from-layer="593" from-port="1" to-layer="597" to-port="1"/>
		<edge from-layer="594" from-port="1" to-layer="597" to-port="2"/>
		<edge from-layer="595" from-port="1" to-layer="597" to-port="3"/>
		<edge from-layer="596" from-port="1" to-layer="597" to-port="4"/>
		<edge from-layer="562" from-port="5" to-layer="598" to-port="0"/>
		<edge from-layer="597" from-port="5" to-layer="598" to-port="1"/>
		<edge from-layer="598" from-port="2" to-layer="600" to-port="0"/>
		<edge from-layer="599" from-port="1" to-layer="600" to-port="1"/>
		<edge from-layer="600" from-port="2" to-layer="601" to-port="0"/>
		<edge from-layer="601" from-port="1" to-layer="606" to-port="0"/>
		<edge from-layer="602" from-port="1" to-layer="606" to-port="1"/>
		<edge from-layer="603" from-port="1" to-layer="606" to-port="2"/>
		<edge from-layer="604" from-port="1" to-layer="606" to-port="3"/>
		<edge from-layer="605" from-port="1" to-layer="606" to-port="4"/>
		<edge from-layer="607" from-port="1" to-layer="612" to-port="0"/>
		<edge from-layer="608" from-port="1" to-layer="612" to-port="1"/>
		<edge from-layer="609" from-port="1" to-layer="612" to-port="2"/>
		<edge from-layer="610" from-port="1" to-layer="612" to-port="3"/>
		<edge from-layer="611" from-port="1" to-layer="612" to-port="4"/>
		<edge from-layer="606" from-port="5" to-layer="613" to-port="0"/>
		<edge from-layer="612" from-port="5" to-layer="613" to-port="1"/>
		<edge from-layer="613" from-port="2" to-layer="615" to-port="0"/>
		<edge from-layer="614" from-port="1" to-layer="615" to-port="1"/>
		<edge from-layer="615" from-port="2" to-layer="620" to-port="0"/>
		<edge from-layer="616" from-port="1" to-layer="620" to-port="1"/>
		<edge from-layer="617" from-port="1" to-layer="620" to-port="2"/>
		<edge from-layer="618" from-port="1" to-layer="620" to-port="3"/>
		<edge from-layer="619" from-port="1" to-layer="620" to-port="4"/>
		<edge from-layer="591" from-port="5" to-layer="621" to-port="0"/>
		<edge from-layer="620" from-port="5" to-layer="621" to-port="1"/>
		<edge from-layer="517" from-port="5" to-layer="621" to-port="2"/>
		<edge from-layer="622" from-port="1" to-layer="627" to-port="0"/>
		<edge from-layer="623" from-port="1" to-layer="627" to-port="1"/>
		<edge from-layer="624" from-port="1" to-layer="627" to-port="2"/>
		<edge from-layer="625" from-port="1" to-layer="627" to-port="3"/>
		<edge from-layer="626" from-port="1" to-layer="627" to-port="4"/>
		<edge from-layer="621" from-port="3" to-layer="628" to-port="0"/>
		<edge from-layer="627" from-port="5" to-layer="628" to-port="1"/>
		<edge from-layer="628" from-port="2" to-layer="630" to-port="0"/>
		<edge from-layer="629" from-port="1" to-layer="630" to-port="1"/>
		<edge from-layer="630" from-port="2" to-layer="631" to-port="0"/>
		<edge from-layer="631" from-port="1" to-layer="636" to-port="0"/>
		<edge from-layer="632" from-port="1" to-layer="636" to-port="1"/>
		<edge from-layer="633" from-port="1" to-layer="636" to-port="2"/>
		<edge from-layer="634" from-port="1" to-layer="636" to-port="3"/>
		<edge from-layer="635" from-port="1" to-layer="636" to-port="4"/>
		<edge from-layer="637" from-port="1" to-layer="642" to-port="0"/>
		<edge from-layer="638" from-port="1" to-layer="642" to-port="1"/>
		<edge from-layer="639" from-port="1" to-layer="642" to-port="2"/>
		<edge from-layer="640" from-port="1" to-layer="642" to-port="3"/>
		<edge from-layer="641" from-port="1" to-layer="642" to-port="4"/>
		<edge from-layer="636" from-port="5" to-layer="643" to-port="0"/>
		<edge from-layer="642" from-port="5" to-layer="643" to-port="1"/>
		<edge from-layer="643" from-port="2" to-layer="645" to-port="0"/>
		<edge from-layer="644" from-port="1" to-layer="645" to-port="1"/>
		<edge from-layer="645" from-port="2" to-layer="646" to-port="0"/>
		<edge from-layer="646" from-port="1" to-layer="651" to-port="0"/>
		<edge from-layer="647" from-port="1" to-layer="651" to-port="1"/>
		<edge from-layer="648" from-port="1" to-layer="651" to-port="2"/>
		<edge from-layer="649" from-port="1" to-layer="651" to-port="3"/>
		<edge from-layer="650" from-port="1" to-layer="651" to-port="4"/>
		<edge from-layer="652" from-port="1" to-layer="657" to-port="0"/>
		<edge from-layer="653" from-port="1" to-layer="657" to-port="1"/>
		<edge from-layer="654" from-port="1" to-layer="657" to-port="2"/>
		<edge from-layer="655" from-port="1" to-layer="657" to-port="3"/>
		<edge from-layer="656" from-port="1" to-layer="657" to-port="4"/>
		<edge from-layer="651" from-port="5" to-layer="658" to-port="0"/>
		<edge from-layer="657" from-port="5" to-layer="658" to-port="1"/>
		<edge from-layer="658" from-port="2" to-layer="660" to-port="0"/>
		<edge from-layer="659" from-port="1" to-layer="660" to-port="1"/>
		<edge from-layer="660" from-port="2" to-layer="661" to-port="0"/>
		<edge from-layer="661" from-port="1" to-layer="666" to-port="0"/>
		<edge from-layer="662" from-port="1" to-layer="666" to-port="1"/>
		<edge from-layer="663" from-port="1" to-layer="666" to-port="2"/>
		<edge from-layer="664" from-port="1" to-layer="666" to-port="3"/>
		<edge from-layer="665" from-port="1" to-layer="666" to-port="4"/>
		<edge from-layer="636" from-port="5" to-layer="667" to-port="0"/>
		<edge from-layer="666" from-port="5" to-layer="667" to-port="1"/>
		<edge from-layer="667" from-port="2" to-layer="672" to-port="0"/>
		<edge from-layer="668" from-port="1" to-layer="672" to-port="1"/>
		<edge from-layer="669" from-port="1" to-layer="672" to-port="2"/>
		<edge from-layer="670" from-port="1" to-layer="672" to-port="3"/>
		<edge from-layer="671" from-port="1" to-layer="672" to-port="4"/>
		<edge from-layer="673" from-port="1" to-layer="678" to-port="0"/>
		<edge from-layer="674" from-port="1" to-layer="678" to-port="1"/>
		<edge from-layer="675" from-port="1" to-layer="678" to-port="2"/>
		<edge from-layer="676" from-port="1" to-layer="678" to-port="3"/>
		<edge from-layer="677" from-port="1" to-layer="678" to-port="4"/>
		<edge from-layer="672" from-port="5" to-layer="679" to-port="0"/>
		<edge from-layer="678" from-port="5" to-layer="679" to-port="1"/>
		<edge from-layer="679" from-port="2" to-layer="681" to-port="0"/>
		<edge from-layer="680" from-port="1" to-layer="681" to-port="1"/>
		<edge from-layer="681" from-port="2" to-layer="682" to-port="0"/>
		<edge from-layer="682" from-port="1" to-layer="687" to-port="0"/>
		<edge from-layer="683" from-port="1" to-layer="687" to-port="1"/>
		<edge from-layer="684" from-port="1" to-layer="687" to-port="2"/>
		<edge from-layer="685" from-port="1" to-layer="687" to-port="3"/>
		<edge from-layer="686" from-port="1" to-layer="687" to-port="4"/>
		<edge from-layer="688" from-port="1" to-layer="693" to-port="0"/>
		<edge from-layer="689" from-port="1" to-layer="693" to-port="1"/>
		<edge from-layer="690" from-port="1" to-layer="693" to-port="2"/>
		<edge from-layer="691" from-port="1" to-layer="693" to-port="3"/>
		<edge from-layer="692" from-port="1" to-layer="693" to-port="4"/>
		<edge from-layer="687" from-port="5" to-layer="694" to-port="0"/>
		<edge from-layer="693" from-port="5" to-layer="694" to-port="1"/>
		<edge from-layer="694" from-port="2" to-layer="696" to-port="0"/>
		<edge from-layer="695" from-port="1" to-layer="696" to-port="1"/>
		<edge from-layer="696" from-port="2" to-layer="697" to-port="0"/>
		<edge from-layer="697" from-port="1" to-layer="702" to-port="0"/>
		<edge from-layer="698" from-port="1" to-layer="702" to-port="1"/>
		<edge from-layer="699" from-port="1" to-layer="702" to-port="2"/>
		<edge from-layer="700" from-port="1" to-layer="702" to-port="3"/>
		<edge from-layer="701" from-port="1" to-layer="702" to-port="4"/>
		<edge from-layer="703" from-port="1" to-layer="708" to-port="0"/>
		<edge from-layer="704" from-port="1" to-layer="708" to-port="1"/>
		<edge from-layer="705" from-port="1" to-layer="708" to-port="2"/>
		<edge from-layer="706" from-port="1" to-layer="708" to-port="3"/>
		<edge from-layer="707" from-port="1" to-layer="708" to-port="4"/>
		<edge from-layer="702" from-port="5" to-layer="709" to-port="0"/>
		<edge from-layer="708" from-port="5" to-layer="709" to-port="1"/>
		<edge from-layer="709" from-port="2" to-layer="711" to-port="0"/>
		<edge from-layer="710" from-port="1" to-layer="711" to-port="1"/>
		<edge from-layer="711" from-port="2" to-layer="712" to-port="0"/>
		<edge from-layer="712" from-port="1" to-layer="717" to-port="0"/>
		<edge from-layer="713" from-port="1" to-layer="717" to-port="1"/>
		<edge from-layer="714" from-port="1" to-layer="717" to-port="2"/>
		<edge from-layer="715" from-port="1" to-layer="717" to-port="3"/>
		<edge from-layer="716" from-port="1" to-layer="717" to-port="4"/>
		<edge from-layer="687" from-port="5" to-layer="718" to-port="0"/>
		<edge from-layer="717" from-port="5" to-layer="718" to-port="1"/>
		<edge from-layer="718" from-port="2" to-layer="723" to-port="0"/>
		<edge from-layer="719" from-port="1" to-layer="723" to-port="1"/>
		<edge from-layer="720" from-port="1" to-layer="723" to-port="2"/>
		<edge from-layer="721" from-port="1" to-layer="723" to-port="3"/>
		<edge from-layer="722" from-port="1" to-layer="723" to-port="4"/>
		<edge from-layer="724" from-port="1" to-layer="729" to-port="0"/>
		<edge from-layer="725" from-port="1" to-layer="729" to-port="1"/>
		<edge from-layer="726" from-port="1" to-layer="729" to-port="2"/>
		<edge from-layer="727" from-port="1" to-layer="729" to-port="3"/>
		<edge from-layer="728" from-port="1" to-layer="729" to-port="4"/>
		<edge from-layer="723" from-port="5" to-layer="730" to-port="0"/>
		<edge from-layer="729" from-port="5" to-layer="730" to-port="1"/>
		<edge from-layer="730" from-port="2" to-layer="732" to-port="0"/>
		<edge from-layer="731" from-port="1" to-layer="732" to-port="1"/>
		<edge from-layer="732" from-port="2" to-layer="733" to-port="0"/>
		<edge from-layer="733" from-port="1" to-layer="738" to-port="0"/>
		<edge from-layer="734" from-port="1" to-layer="738" to-port="1"/>
		<edge from-layer="735" from-port="1" to-layer="738" to-port="2"/>
		<edge from-layer="736" from-port="1" to-layer="738" to-port="3"/>
		<edge from-layer="737" from-port="1" to-layer="738" to-port="4"/>
		<edge from-layer="739" from-port="1" to-layer="744" to-port="0"/>
		<edge from-layer="740" from-port="1" to-layer="744" to-port="1"/>
		<edge from-layer="741" from-port="1" to-layer="744" to-port="2"/>
		<edge from-layer="742" from-port="1" to-layer="744" to-port="3"/>
		<edge from-layer="743" from-port="1" to-layer="744" to-port="4"/>
		<edge from-layer="738" from-port="5" to-layer="745" to-port="0"/>
		<edge from-layer="744" from-port="5" to-layer="745" to-port="1"/>
		<edge from-layer="745" from-port="2" to-layer="747" to-port="0"/>
		<edge from-layer="746" from-port="1" to-layer="747" to-port="1"/>
		<edge from-layer="747" from-port="2" to-layer="748" to-port="0"/>
		<edge from-layer="748" from-port="1" to-layer="753" to-port="0"/>
		<edge from-layer="749" from-port="1" to-layer="753" to-port="1"/>
		<edge from-layer="750" from-port="1" to-layer="753" to-port="2"/>
		<edge from-layer="751" from-port="1" to-layer="753" to-port="3"/>
		<edge from-layer="752" from-port="1" to-layer="753" to-port="4"/>
		<edge from-layer="754" from-port="1" to-layer="759" to-port="0"/>
		<edge from-layer="755" from-port="1" to-layer="759" to-port="1"/>
		<edge from-layer="756" from-port="1" to-layer="759" to-port="2"/>
		<edge from-layer="757" from-port="1" to-layer="759" to-port="3"/>
		<edge from-layer="758" from-port="1" to-layer="759" to-port="4"/>
		<edge from-layer="753" from-port="5" to-layer="760" to-port="0"/>
		<edge from-layer="759" from-port="5" to-layer="760" to-port="1"/>
		<edge from-layer="760" from-port="2" to-layer="762" to-port="0"/>
		<edge from-layer="761" from-port="1" to-layer="762" to-port="1"/>
		<edge from-layer="762" from-port="2" to-layer="763" to-port="0"/>
		<edge from-layer="763" from-port="1" to-layer="768" to-port="0"/>
		<edge from-layer="764" from-port="1" to-layer="768" to-port="1"/>
		<edge from-layer="765" from-port="1" to-layer="768" to-port="2"/>
		<edge from-layer="766" from-port="1" to-layer="768" to-port="3"/>
		<edge from-layer="767" from-port="1" to-layer="768" to-port="4"/>
		<edge from-layer="738" from-port="5" to-layer="769" to-port="0"/>
		<edge from-layer="768" from-port="5" to-layer="769" to-port="1"/>
		<edge from-layer="769" from-port="2" to-layer="774" to-port="0"/>
		<edge from-layer="770" from-port="1" to-layer="774" to-port="1"/>
		<edge from-layer="771" from-port="1" to-layer="774" to-port="2"/>
		<edge from-layer="772" from-port="1" to-layer="774" to-port="3"/>
		<edge from-layer="773" from-port="1" to-layer="774" to-port="4"/>
		<edge from-layer="775" from-port="1" to-layer="780" to-port="0"/>
		<edge from-layer="776" from-port="1" to-layer="780" to-port="1"/>
		<edge from-layer="777" from-port="1" to-layer="780" to-port="2"/>
		<edge from-layer="778" from-port="1" to-layer="780" to-port="3"/>
		<edge from-layer="779" from-port="1" to-layer="780" to-port="4"/>
		<edge from-layer="774" from-port="5" to-layer="781" to-port="0"/>
		<edge from-layer="780" from-port="5" to-layer="781" to-port="1"/>
		<edge from-layer="781" from-port="2" to-layer="783" to-port="0"/>
		<edge from-layer="782" from-port="1" to-layer="783" to-port="1"/>
		<edge from-layer="783" from-port="2" to-layer="784" to-port="0"/>
		<edge from-layer="784" from-port="1" to-layer="789" to-port="0"/>
		<edge from-layer="785" from-port="1" to-layer="789" to-port="1"/>
		<edge from-layer="786" from-port="1" to-layer="789" to-port="2"/>
		<edge from-layer="787" from-port="1" to-layer="789" to-port="3"/>
		<edge from-layer="788" from-port="1" to-layer="789" to-port="4"/>
		<edge from-layer="790" from-port="1" to-layer="795" to-port="0"/>
		<edge from-layer="791" from-port="1" to-layer="795" to-port="1"/>
		<edge from-layer="792" from-port="1" to-layer="795" to-port="2"/>
		<edge from-layer="793" from-port="1" to-layer="795" to-port="3"/>
		<edge from-layer="794" from-port="1" to-layer="795" to-port="4"/>
		<edge from-layer="789" from-port="5" to-layer="796" to-port="0"/>
		<edge from-layer="795" from-port="5" to-layer="796" to-port="1"/>
		<edge from-layer="796" from-port="2" to-layer="798" to-port="0"/>
		<edge from-layer="797" from-port="1" to-layer="798" to-port="1"/>
		<edge from-layer="798" from-port="2" to-layer="799" to-port="0"/>
		<edge from-layer="799" from-port="1" to-layer="804" to-port="0"/>
		<edge from-layer="800" from-port="1" to-layer="804" to-port="1"/>
		<edge from-layer="801" from-port="1" to-layer="804" to-port="2"/>
		<edge from-layer="802" from-port="1" to-layer="804" to-port="3"/>
		<edge from-layer="803" from-port="1" to-layer="804" to-port="4"/>
		<edge from-layer="805" from-port="1" to-layer="810" to-port="0"/>
		<edge from-layer="806" from-port="1" to-layer="810" to-port="1"/>
		<edge from-layer="807" from-port="1" to-layer="810" to-port="2"/>
		<edge from-layer="808" from-port="1" to-layer="810" to-port="3"/>
		<edge from-layer="809" from-port="1" to-layer="810" to-port="4"/>
		<edge from-layer="804" from-port="5" to-layer="811" to-port="0"/>
		<edge from-layer="810" from-port="5" to-layer="811" to-port="1"/>
		<edge from-layer="811" from-port="2" to-layer="813" to-port="0"/>
		<edge from-layer="812" from-port="1" to-layer="813" to-port="1"/>
		<edge from-layer="813" from-port="2" to-layer="814" to-port="0"/>
		<edge from-layer="814" from-port="1" to-layer="819" to-port="0"/>
		<edge from-layer="815" from-port="1" to-layer="819" to-port="1"/>
		<edge from-layer="816" from-port="1" to-layer="819" to-port="2"/>
		<edge from-layer="817" from-port="1" to-layer="819" to-port="3"/>
		<edge from-layer="818" from-port="1" to-layer="819" to-port="4"/>
		<edge from-layer="789" from-port="5" to-layer="820" to-port="0"/>
		<edge from-layer="819" from-port="5" to-layer="820" to-port="1"/>
		<edge from-layer="820" from-port="2" to-layer="825" to-port="0"/>
		<edge from-layer="821" from-port="1" to-layer="825" to-port="1"/>
		<edge from-layer="822" from-port="1" to-layer="825" to-port="2"/>
		<edge from-layer="823" from-port="1" to-layer="825" to-port="3"/>
		<edge from-layer="824" from-port="1" to-layer="825" to-port="4"/>
		<edge from-layer="826" from-port="1" to-layer="831" to-port="0"/>
		<edge from-layer="827" from-port="1" to-layer="831" to-port="1"/>
		<edge from-layer="828" from-port="1" to-layer="831" to-port="2"/>
		<edge from-layer="829" from-port="1" to-layer="831" to-port="3"/>
		<edge from-layer="830" from-port="1" to-layer="831" to-port="4"/>
		<edge from-layer="825" from-port="5" to-layer="832" to-port="0"/>
		<edge from-layer="831" from-port="5" to-layer="832" to-port="1"/>
		<edge from-layer="832" from-port="2" to-layer="834" to-port="0"/>
		<edge from-layer="833" from-port="1" to-layer="834" to-port="1"/>
		<edge from-layer="834" from-port="2" to-layer="835" to-port="0"/>
		<edge from-layer="835" from-port="1" to-layer="840" to-port="0"/>
		<edge from-layer="836" from-port="1" to-layer="840" to-port="1"/>
		<edge from-layer="837" from-port="1" to-layer="840" to-port="2"/>
		<edge from-layer="838" from-port="1" to-layer="840" to-port="3"/>
		<edge from-layer="839" from-port="1" to-layer="840" to-port="4"/>
		<edge from-layer="841" from-port="1" to-layer="846" to-port="0"/>
		<edge from-layer="842" from-port="1" to-layer="846" to-port="1"/>
		<edge from-layer="843" from-port="1" to-layer="846" to-port="2"/>
		<edge from-layer="844" from-port="1" to-layer="846" to-port="3"/>
		<edge from-layer="845" from-port="1" to-layer="846" to-port="4"/>
		<edge from-layer="840" from-port="5" to-layer="847" to-port="0"/>
		<edge from-layer="846" from-port="5" to-layer="847" to-port="1"/>
		<edge from-layer="847" from-port="2" to-layer="849" to-port="0"/>
		<edge from-layer="848" from-port="1" to-layer="849" to-port="1"/>
		<edge from-layer="849" from-port="2" to-layer="850" to-port="0"/>
		<edge from-layer="850" from-port="1" to-layer="855" to-port="0"/>
		<edge from-layer="851" from-port="1" to-layer="855" to-port="1"/>
		<edge from-layer="852" from-port="1" to-layer="855" to-port="2"/>
		<edge from-layer="853" from-port="1" to-layer="855" to-port="3"/>
		<edge from-layer="854" from-port="1" to-layer="855" to-port="4"/>
		<edge from-layer="856" from-port="1" to-layer="861" to-port="0"/>
		<edge from-layer="857" from-port="1" to-layer="861" to-port="1"/>
		<edge from-layer="858" from-port="1" to-layer="861" to-port="2"/>
		<edge from-layer="859" from-port="1" to-layer="861" to-port="3"/>
		<edge from-layer="860" from-port="1" to-layer="861" to-port="4"/>
		<edge from-layer="855" from-port="5" to-layer="862" to-port="0"/>
		<edge from-layer="861" from-port="5" to-layer="862" to-port="1"/>
		<edge from-layer="862" from-port="2" to-layer="864" to-port="0"/>
		<edge from-layer="863" from-port="1" to-layer="864" to-port="1"/>
		<edge from-layer="864" from-port="2" to-layer="865" to-port="0"/>
		<edge from-layer="865" from-port="1" to-layer="870" to-port="0"/>
		<edge from-layer="866" from-port="1" to-layer="870" to-port="1"/>
		<edge from-layer="867" from-port="1" to-layer="870" to-port="2"/>
		<edge from-layer="868" from-port="1" to-layer="870" to-port="3"/>
		<edge from-layer="869" from-port="1" to-layer="870" to-port="4"/>
		<edge from-layer="840" from-port="5" to-layer="871" to-port="0"/>
		<edge from-layer="870" from-port="5" to-layer="871" to-port="1"/>
		<edge from-layer="871" from-port="2" to-layer="876" to-port="0"/>
		<edge from-layer="872" from-port="1" to-layer="876" to-port="1"/>
		<edge from-layer="873" from-port="1" to-layer="876" to-port="2"/>
		<edge from-layer="874" from-port="1" to-layer="876" to-port="3"/>
		<edge from-layer="875" from-port="1" to-layer="876" to-port="4"/>
		<edge from-layer="877" from-port="1" to-layer="882" to-port="0"/>
		<edge from-layer="878" from-port="1" to-layer="882" to-port="1"/>
		<edge from-layer="879" from-port="1" to-layer="882" to-port="2"/>
		<edge from-layer="880" from-port="1" to-layer="882" to-port="3"/>
		<edge from-layer="881" from-port="1" to-layer="882" to-port="4"/>
		<edge from-layer="876" from-port="5" to-layer="883" to-port="0"/>
		<edge from-layer="882" from-port="5" to-layer="883" to-port="1"/>
		<edge from-layer="883" from-port="2" to-layer="885" to-port="0"/>
		<edge from-layer="884" from-port="1" to-layer="885" to-port="1"/>
		<edge from-layer="885" from-port="2" to-layer="886" to-port="0"/>
		<edge from-layer="886" from-port="1" to-layer="891" to-port="0"/>
		<edge from-layer="887" from-port="1" to-layer="891" to-port="1"/>
		<edge from-layer="888" from-port="1" to-layer="891" to-port="2"/>
		<edge from-layer="889" from-port="1" to-layer="891" to-port="3"/>
		<edge from-layer="890" from-port="1" to-layer="891" to-port="4"/>
		<edge from-layer="892" from-port="1" to-layer="897" to-port="0"/>
		<edge from-layer="893" from-port="1" to-layer="897" to-port="1"/>
		<edge from-layer="894" from-port="1" to-layer="897" to-port="2"/>
		<edge from-layer="895" from-port="1" to-layer="897" to-port="3"/>
		<edge from-layer="896" from-port="1" to-layer="897" to-port="4"/>
		<edge from-layer="891" from-port="5" to-layer="898" to-port="0"/>
		<edge from-layer="897" from-port="5" to-layer="898" to-port="1"/>
		<edge from-layer="898" from-port="2" to-layer="900" to-port="0"/>
		<edge from-layer="899" from-port="1" to-layer="900" to-port="1"/>
		<edge from-layer="900" from-port="2" to-layer="901" to-port="0"/>
		<edge from-layer="902" from-port="1" to-layer="907" to-port="0"/>
		<edge from-layer="903" from-port="1" to-layer="907" to-port="1"/>
		<edge from-layer="904" from-port="1" to-layer="907" to-port="2"/>
		<edge from-layer="905" from-port="1" to-layer="907" to-port="3"/>
		<edge from-layer="906" from-port="1" to-layer="907" to-port="4"/>
		<edge from-layer="876" from-port="5" to-layer="908" to-port="0"/>
		<edge from-layer="907" from-port="5" to-layer="908" to-port="1"/>
		<edge from-layer="908" from-port="2" to-layer="910" to-port="0"/>
		<edge from-layer="909" from-port="1" to-layer="910" to-port="1"/>
		<edge from-layer="910" from-port="2" to-layer="911" to-port="0"/>
		<edge from-layer="911" from-port="1" to-layer="916" to-port="0"/>
		<edge from-layer="912" from-port="1" to-layer="916" to-port="1"/>
		<edge from-layer="913" from-port="1" to-layer="916" to-port="2"/>
		<edge from-layer="914" from-port="1" to-layer="916" to-port="3"/>
		<edge from-layer="915" from-port="1" to-layer="916" to-port="4"/>
		<edge from-layer="917" from-port="1" to-layer="922" to-port="0"/>
		<edge from-layer="918" from-port="1" to-layer="922" to-port="1"/>
		<edge from-layer="919" from-port="1" to-layer="922" to-port="2"/>
		<edge from-layer="920" from-port="1" to-layer="922" to-port="3"/>
		<edge from-layer="921" from-port="1" to-layer="922" to-port="4"/>
		<edge from-layer="916" from-port="5" to-layer="923" to-port="0"/>
		<edge from-layer="922" from-port="5" to-layer="923" to-port="1"/>
		<edge from-layer="923" from-port="2" to-layer="925" to-port="0"/>
		<edge from-layer="924" from-port="1" to-layer="925" to-port="1"/>
		<edge from-layer="925" from-port="2" to-layer="926" to-port="0"/>
	</edges>
	<meta_data>
		<MO_version value="unknown version"/>
		<cli_parameters>
			<blobs_as_inputs value="True"/>
			<caffe_parser_path value="DIR"/>
			<data_type value="FP32"/>
			<disable_nhwc_to_nchw value="False"/>
			<disable_omitting_optional value="False"/>
			<disable_resnet_optimization value="False"/>
			<enable_concat_optimization value="False"/>
			<enable_flattening_nested_params value="False"/>
			<enable_ssd_gluoncv value="False"/>
			<extensions value="DIR"/>
			<framework value="caffe"/>
			<freeze_placeholder_with_value value="{}"/>
			<generate_deprecated_IR_V2 value="False"/>
			<generate_deprecated_IR_V7 value="False"/>
			<generate_experimental_IR_V10 value="True"/>
			<input value="data"/>
			<input_model value="DIR/icv-hpe-0001.caffemodel"/>
			<input_model_is_text value="False"/>
			<input_proto value="DIR/icv-hpe-0001.prototxt"/>
			<input_shape value="[1,3,256,456]"/>
			<k value="DIR/CustomLayersMapping.xml"/>
			<keep_quantize_ops_in_IR value="True"/>
			<keep_shape_ops value="False"/>
			<legacy_mxnet_model value="False"/>
			<log_level value="ERROR"/>
			<mean_scale_values value="{'data': {'mean': array([128., 128., 128.]), 'scale': array([255.00446258])}}"/>
			<mean_values value="data[128.0,128.0,128.0]"/>
			<model_name value="human-pose-estimation-0001"/>
			<move_to_preprocess value="False"/>
			<output value="['Mconv7_stage2_L1', 'Mconv7_stage2_L2']"/>
			<output_dir value="DIR"/>
			<placeholder_data_types value="{}"/>
			<placeholder_shapes value="{'data': array([  1,   3, 256, 456])}"/>
			<progress value="False"/>
			<remove_memory value="False"/>
			<remove_output_softmax value="False"/>
			<reverse_input_channels value="False"/>
			<save_params_from_nd value="False"/>
			<scale_values value="data[255.00446257809514]"/>
			<silent value="False"/>
			<stream_output value="False"/>
			<unset unset_cli_parameters="batch, counts, disable_fusing, disable_gfusing, finegrain_fusing, input_checkpoint, input_meta_graph, input_symbol, mean_file, mean_file_offsets, nd_prefix_name, pretrained_model_name, saved_model_dir, saved_model_tags, scale, tensorboard_logdir, tensorflow_custom_layer_libraries, tensorflow_custom_operations_config_update, tensorflow_object_detection_api_pipeline_config, tensorflow_operation_patterns, tensorflow_subgraph_patterns, tensorflow_use_custom_operations_config, transformations_config"/>
		</cli_parameters>
	</meta_data>
</net>
